data/msl/best.pt (torch_old, 14865 bytes, 16 tensors)

embedding.weight f4 [27, 64]
00000000: 3aa9 9fbd c8bc 5c3d 1e5b bebd d2b2 aa3d
00000010: fc36 9b3d 3f8a b3bd c8cf 8bbd 09d0 403d
00000020: 4e99 10be f1f0 ff3d 621d a13d 3f17 97bd
00000030: 14c2 033e e680 0cbe 8df0 99bd f30c e1bd
00000040: 704c 12bd b866 223e ea55 233d 18e9 0cbe
00000050: 506b a83d 5902 6bbd 0d10 f0bd 5a9c af3b
00000060: 4c43 193d 3e17 d9bd c1f2 62bd 642c 00be
00000070: bde4 c3bd 9134 de3c 4b14 453c 9257 8f3d
00000080: 0d34 c3bd 08e7 5ebb 7b6f 9c3d 5f06 31be
00000090: cf3b 983d 839e 29bd d343 0fbd f62b 6e3d
000000a0: a6ec fb3d 8853 db3d 978c 92bd 7c12 e83d
000000b0: c07b e5bd 5d5a 383e 4de6 aa3c 96ff 5cbb
000000c0: cfad 02be 4033 b8bd 50e3 80bd aff2 383c
000000d0: 103a febd c7e5 4fba 020f d13d 0bda dfbc
000000e0: e28e 11be 0986 a43d 71e5 a63c 813b ebbd
000000f0: 8c09 d4ba d775 9ebd 5007 8dbc 7ee9 e0bd
00000100: f4b3 16bd 4ff0 1ebc 88b5 e7bd ae2f 65bc
00000110: b4ca 96be 025f 87be aad1 1abd ea6f 1f3d
00000120: e611 b03e 93e0 5a3d cd67 f4be 0873 40bd
00000130: 8e11 273c a10c 4fbc dfa2 70be bf58 0abd
00000140: 4f47 d03d 131f 213d f49c ef3c 7aac 0b3e
00000150: d657 ec3d 3d32 82bd 3301 7dbd f900 f4bd
00000160: 5127 9c3d 319f b53d 3868 5b3c 8123 0ebd
00000170: 24f8 a03d 9c0e 4d3d a8ef 14bd 3e98 23be
00000180: 3931 e93d 951a ebbd d495 b73d 64a6 b03d
00000190: cbee 90be c65e 85bc 46e6 643d 888e 693d
000001a0: f339 00bf c02c a2bd 92be 073d b83d f7bd
000001b0: dda7 6a3e 0846 2c3e 685a e9bd 6591 5c3d
000001c0: 571e 26be 5e80 9c3b b880 54bd 8de3 0f3e
000001d0: 6f2f e03d 43ab 77bc 2111 26bd 096e 4bbd
000001e0: 35bf 823c b94b 1a3e 8746 c03d 9f40 683d
000001f0: d365 0a3e 3a5b a4be e723 723e 594a 86bd
00000200: 0757 88bd 8e73 a03d ae14 823d 7c19 793d
00000210: c24a 02be 6d5b 843d f811 9b3d 3c57 343d
00000220: c2ed 3d3b fc66 a6bc 2da9 583b 2261 15be
00000230: f8e0 75bd 6dda 8ebc 0d0d ce3d b458 a1ba
00000240: bad4 02be 9185 73bd cb85 9cbd cb22 04be
00000250: 79f3 c03d e3d7 8bbd 0228 3cbe 1b83 49bd
00000260: 669a 1b3e af7c 133d cea3 25be 8e10 a8bd
00000270: 355b 97bd bc48 75bd a4f5 913d 2f1c e9bc
00000280: bd06 75bd 12ea be3c a907 7f3d afba 85bc
00000290: 5b27 5a3d ee5e 9dbc 83a5 2bbd bcb1 d8bb
000002a0: 77a4 883d 0eed cb3d 50f3 783d a379 0cbe
000002b0: 5a1a febd cae8 003c db4b 98bc 590a 33bc
000002c0: 0ea8 04bd 56f7 05be 68ae f5bb 07a1 093d
000002d0: 283c 0e3e 6403 ed3d e596 1fbd d849 0d3e
000002e0: 7b55 61bd 4f76 173e 49cd 693d fbb2 4b3d
000002f0: 24f7 3f3d cfe5 393d 01eb e33d 1106 8abe
00000300: df86 c53d cf08 d4bd f6b7 e9bd 37fd 56bc
00000310: af7c f13d 6819 31bd ac77 83bd 1ce6 f73d
00000320: 8043 8dbe c89c b73d a4ca 0d3e d9ac 54bd
00000330: e6e1 a73d ddb5 403e 6819 40bc ebca 893d
00000340: 0aec 8fbc 0ef5 a23d a38f af3c 8760 2ebe
00000350: 7b83 d73d 7db6 96be 68a0 67bd 17dc debb
00000360: 5141 c9b8 aef3 3a3b 99d9 3dbd b3d4 3a3c
00000370: 1f15 47bb 203b 2cbc c6e8 c03c 0a77 f73d
00000380: 8605 2ebc 94c6 eebd 0452 4b3d 596c 1f3d
00000390: 8933 a13d 1e0a 993e 9e7f 843c 0a81 b7bd
000003a0: 0635 0cbd fecc 0bbe babd 9cbd c8ab c73c
000003b0: 2c18 84be d2f3 833d d502 193d e63b 57bc
000003c0: 8a18 273e 93ae 3dbd b6a4 c7bc 9411 adbe
000003d0: c262 303d f639 4abe 5b74 0e3e 153e c73b
000003e0: 1228 96be e297 a73c fb01 74bd 66b2 343e
000003f0: 587d 88be 7e7b d53d c821 a7bd a9b3 afbc
-0.07795949 0.053890973 -0.09294723 0.083348885 0.07578847 -0.08766603 -0.068267405 0.047073398
-0.14120981 0.12497128 0.078669325 -0.07377481 0.12867004 -0.13721046 -0.075165845 -0.10988798
-0.035717428 0.15859497 0.039876856 -0.13760793 0.08223593 -0.057375286 -0.117218114 0.0053592147
0.037417695 -0.10600136 -0.05540729 -0.12516934 -0.09565113 0.027124675 0.012028764 0.069991246
-0.09531412 -0.0034012217 0.07638451 -0.17287587 0.074332826 -0.041410934 -0.03497679 0.058147393
0.123009965 0.10709292 -0.07155722 0.113316506 -0.11205244 0.18003221 0.02086177 -0.0033721677
-0.12761615 -0.0899415 -0.062933564 0.011288329 -0.12413418 -0.0007930663 0.10207941 -0.02732565
-0.14214662 0.08033378 0.020373078 -0.11485959 -0.0016177162 -0.0773732 -0.017215401 -0.10982035
-0.03679271 -0.009700849 -0.11313921 -0.0139884185 -0.29451525 -0.26439673 -0.037797607 0.03892509
0.34388655 0.053436827 -0.47735444 -0.046984702 0.010197056 -0.012637288 -0.2349963 -0.03377604
0.10169851 0.039336275 0.029249646 0.13640013 0.11540191 -0.063572384 -0.06176872 -0.11914248
0.076246865 0.08868254 0.013391547 -0.034701828 0.07859829 0.05006276 -0.036361367 -0.15976045
0.113863416 -0.114796795 0.08964124 0.086254865 -0.28307185 -0.016280543 0.05588367 0.057020694
-0.50088423 -0.07918692 0.033140726 -0.12072319 0.22915597 0.1682359 -0.11394197 0.053849597
-0.16222511 0.0047760447 -0.05188057 0.14051647 0.10946547 -0.015116516 -0.04054368 -0.049665485
0.015960315 0.15067948 0.09388452 0.056702252 0.13515405 -0.3210085 0.23646508 -0.065571494
-0.06657224 0.0783454 0.063516006 0.06081532 -0.1272383 0.064627506 0.07571787 0.044028506
0.0028980826 -0.020312779 0.003305982 -0.14587834 -0.060029 -0.017438138 0.10061083 -0.0012309761
-0.12776461 -0.05945355 -0.076427065 -0.12903897 0.09421439 -0.068282865 -0.18374637 -0.049197298
0.15195617 0.03600758 -0.16175768 -0.082062826 -0.07390443 -0.059883818 0.0712693 -0.028455822
-0.05982088 0.023304973 0.062263165 -0.01632437 0.05326019 -0.019210305 -0.04190589 -0.0066129845
0.06671994 0.09957324 0.060778916 -0.13718276 -0.1240737 0.007868001 -0.018590858 -0.01092776
-0.032386832 -0.13082632 -0.0074975975 0.033600833 0.13890135 0.11572912 -0.038962264 0.137977
-0.05501316 0.14791225 0.05708054 0.049731236 0.04686655 0.04538518 0.11128808 -0.26957753
0.09644865 -0.103532426 -0.11412041 -0.013121895 0.1179136 -0.04323712 -0.0641931 0.12104437
-0.2759056 0.089654505 0.13846833 -0.051922653 0.081973836 0.18819375 -0.011724807 0.06728157
-0.017568607 0.07956897 0.021430796 -0.1702901 0.10523125 -0.29436103 -0.05654946 -0.006801139
-9.596593e-05 0.0028526592 -0.046350095 0.0114032505 -0.003037758 -0.010512143 0.023548495 0.12083252
-0.010621434 -0.116589695 0.049638763 0.038921688 0.07871158 0.2989053 0.016174134 -0.08960159
-0.034230255 -0.13652417 -0.07653375 0.024373904 -0.25799692 0.064429894 0.037356216 -0.0131368395
0.16317955 -0.046309065 -0.024370532 -0.33802474 0.043062933 -0.19748673 0.13911574 0.006080399
-0.29327446 0.020458166 -0.0595722 0.17646179 -0.2665813 0.10423945 -0.0816074 -0.021447973

bn_outlayer_in.weight f4 [64]
00000000: 61ae 883f e7e8 773f 1091 743f b2c6 703f
00000010: 9d78 7c3f 04f8 763f cca0 873f 6fbb 793f
00000020: 48a6 753f 98f5 763f 23c6 823f 7901 983f
00000030: 8e5b 773f 12e9 7c3f e539 803f e926 743f
00000040: 7b24 763f 5e0d 803f 6645 813f 9211 753f
00000050: 3a5c 743f 0716 7e3f 5a1d 7b3f aebc 793f
00000060: 1fe5 7c3f 0d47 773f cfd4 863f a097 743f
00000070: 1ce4 783f 6aff 813f 450c 713f dfec 733f
00000080: 59c4 833f a57c 7d3f f01f 713f 9735 713f
00000090: 85eb 783f 591a 763f b1e8 803f 97c3 813f
000000a0: cbc9 803f 8e08 8e3f 73a0 753f 01a2 7e3f
000000b0: fc3b 7c3f 66ea 7e3f 25de 7e3f e019 783f
000000c0: b50a 713f 1714 853f bc60 813f 8ba9 763f
000000d0: 8161 723f 7d06 803f 374e 823f 7d0b 743f
000000e0: aca0 7b3f d3e3 733f 5c2f 813f 164a 723f
000000f0: 99d8 803f 85ed 803f 712e 833f c9ea 723f
1.0678216 0.96839756 0.9553385 0.94053185 0.9862154 0.9647219 1.0595946 0.97551626
0.9595685 0.96468496 1.0216717 1.187545 0.96624076 0.9879314 1.0017668 0.9537187
0.96149415 1.0004079 1.0099304 0.95729935 0.95453227 0.9925236 0.9809166 0.9755353
0.9878711 0.9659279 1.0533694 0.9554386 0.9722307 1.0156071 0.94159347 0.9528331
1.0294296 0.9901832 0.9418936 0.94222397 0.97234374 0.96133953 1.0071012 1.0137814
1.0061582 1.1096361 0.9594795 0.9946595 0.9852903 0.99576414 0.99557716 0.9691448
0.9415696 1.0396756 1.0107646 0.9635245 0.9468003 1.000198 1.0180119 0.9533003
0.9829204 0.9526951 1.0092578 0.94644296 1.00661 1.0072485 1.0248548 0.94889504

bn_outlayer_in.bias f4 [64]
00000000: 86d0 bc3d a8bb 3fbd 486e b2bd 14eb 163e
00000010: 58dd 883d cbaf 09bc 82d8 493d ed3f 873c
00000020: bbcd fabc 0d5e a5bc 8dba f2bc 6242 cb3d
00000030: eda6 eb3d 14d0 143c 6f7f 843b 4b24 aa3d
00000040: 570c 683c 0b1f 1d3d 2236 0c3e 7577 563c
00000050: a8c7 4cbc c255 013e d96e 0c3c b8f7 abbc
00000060: d367 8bbd 1d76 f43b 25fb 243d 82ca 10bd
00000070: 2051 46bc bce1 0fbb 2b21 55bd a6ea 83bc
00000080: fd46 4e3d 8ac1 f63d 8edc 53bd 4c28 cbbc
00000090: 2caf 993d 534d b3bd e547 bdbe d42f b1bc
000000a0: 0844 0c3d c6d6 313e 9ca9 32bd 67a4 433d
000000b0: 8ad7 da3c 2bf9 f53d aea8 6c3d ab9b 36bc
000000c0: c6b9 d03d 7e19 3e3d ebc2 623c dd7a 073d
000000d0: 1917 85bd 45a8 23bc 118c 413e 7ffa e53d
000000e0: 1fbd 013e 26c1 a4bd 09b3 d23d 26c9 9fbd
000000f0: be8b fa3c d65b 6e3d fe19 09bb bbd4 dfbc
0.0921946 -0.046809822 -0.08712441 0.14738113 0.06682843 -0.008403729 0.049278744 0.016509974
-0.030615678 -0.020186448 -0.02962997 0.09924771 0.11506448 0.009082813 0.0040435116 0.083077036
0.014163098 0.038359683 0.13692525 0.013090004 -0.012498774 0.1263037 0.00857135 -0.020992145
-0.06806912 0.0074603693 0.040278573 -0.035349376 -0.012104303 -0.0021954617 -0.052033585 -0.0161031
0.05036067 0.120486334 -0.05172401 -0.024799488 0.075041145 -0.08754983 -0.36968914 -0.021629252
0.034244567 0.17367086 -0.043618783 0.04776421 0.026714105 0.12010416 0.057778053 -0.011145513
0.101916835 0.04641103 0.013840417 0.033076156 -0.06498546 -0.009988849 0.18901087 0.11229419
0.126698 -0.08044653 0.102880545 -0.07802038 0.030584212 0.05819305 -0.0020920034 -0.027323117

bn_outlayer_in.running_mean f4 [64]
00000000: 1c59 0dbb cae2 12bb ec20 96bb f5d3 e73b
00000010: ed48 8c3b 0374 19ba e6a4 3cbc 20b8 58ba
00000020: 68b9 bebc 978e a439 1a34 593c 586f 18bd
00000030: 265f 3abc 0102 793b 9312 6f3a 81a5 1abd
00000040: e235 abbc 87bd ed3a 3a51 17bc 0bac edbc
00000050: 13cd 87ba 62f9 d8bc d5ae 0ebd 9f0a 20ba
00000060: 4cbf 7f3c a767 b63a cb02 07bd d697 a6bc
00000070: a671 c9ba c787 133a ef25 cfba e6a2 b9bb
00000080: 1e0c 603b f089 d5bc 55cc 84bb b146 cab9
00000090: fdf7 123c 57f1 523b 7f2b 093a 42c4 023b
000000a0: 31c0 ea3a ee1c eabc 7ac1 e5ba 9ecb 443a
000000b0: 7a60 7cbc 8ec2 2e3c 86ff 1cbc ef96 08bc
000000c0: 2161 29bc 7154 f4bc 129e 893b 7227 583b
000000d0: 3e3e 27bb 9b89 393a 5527 01bd 0cb3 8bbc
000000e0: 9f91 96bc 6a41 0ebb d67d 053c 8ae0 63bb
000000f0: 93dc 9e3a 07d7 f23a 19d1 4a3b 6982 e63a
-0.0021568006 -0.002241301 -0.0045815613 0.007074828 0.0042811544 -0.0005853774 -0.011513924 -0.0008267183
-0.023281768 0.00031386755 0.013257051 -0.03721556 -0.011375224 0.003799558 0.0009119894 -0.037755493
-0.020899717 0.0018138149 -0.0092356745 -0.0290127 -0.00103608 -0.026486102 -0.0348347 -0.00061050983
0.015609574 0.0013916389 -0.032961648 -0.020336073 -0.0015368953 0.00056278374 -0.0015804152 -0.005665171
0.003418691 -0.02606675 -0.0040526786 -0.00038581112 0.008970258 0.0032187307 0.00052326167 0.0019953405
0.0017910061 -0.028578248 -0.0017528974 0.0007507148 -0.015403861 0.010666503 -0.009582406 -0.008336767
-0.010338099 -0.029825421 0.0041997517 0.0032982496 -0.0025519277 0.0007077695 -0.03153165 -0.01705315
-0.018379984 -0.002170647 0.008147677 -0.0034771287 0.001212018 0.0018527218 0.0030947386 0.0017586473

bn_outlayer_in.running_var f4 [64]
00000000: a657 013b b6bc 233b e6c5 803b 9523 b23a
00000010: 21a1 703b 396c f73a 563a 5c3a 6117 263b
00000020: 8869 653b b336 243b 2681 023b 2894 943a
00000030: a1c1 863a 3e45 6b3b 5abb d53a b570 ba3b
00000040: fb84 053b bdb2 183b 3434 0d3a 514d 853b
00000050: c6ad c03b 1ce0 3b3b 892f 1c3b 5008 843b
00000060: a20e 5d3b 9527 313b 7e1a f03a 3f01 393a
00000070: 39d1 3e3b b9af 493b 7605 8a3a d63d 6e3b
00000080: 1060 053b 8850 363b 86c5 0d3b 149b 293b
00000090: dfe3 863b 97d6 b23a b8c2 f537 e6b0 d63a
000000a0: 60fc 853b 4ef3 d83a aea8 a13a 6a05 8b3b
000000b0: 70ff dd3a db8b 993b 70a0 243b 5089 013b
000000c0: feeb 873a 920e 983a e6d0 043b 40c9 b33b
000000d0: 3171 2f3b 2755 113b 31ed aa3b 04e4 f33b
000000e0: 32f2 c83a a03d cb3a 1c28 aa3b ff9c 2e3b
000000f0: 51ff 783b dd4f 1c3b daaf 3a3b 50b4 7a3b
0.001973608 0.0024984307 0.0039298413 0.0013590927 0.0036717134 0.0018876857 0.0008401027 0.0025343525
0.0035005528 0.0025057017 0.0019913404 0.0011335658 0.0010281095 0.0035899426 0.0016306445 0.0056897053
0.0020373452 0.0023299896 0.0005386502 0.0040680547 0.0058800904 0.0028667515 0.0023832044 0.0040293112
0.0033730646 0.002703165 0.0018318442 0.00070573756 0.0029116406 0.0030774905 0.0010530192 0.0036352775
0.0020351447 0.0027818996 0.0021632626 0.0025879787 0.00411652 0.0013644275 2.9296949e-05 0.0016379624
0.0040889233 0.0016552003 0.0012333596 0.0042425888 0.0016937088 0.0046858615 0.0025120042 0.0019765683
0.0010370014 0.0011601022 0.0020266115 0.0054866374 0.0026770348 0.0022176 0.0052162637 0.007442953
0.0015330969 0.0015506037 0.0051927697 0.002664387 0.0037993977 0.0023851313 0.0028486163 0.0038254447

gnn_layers.0.gnn.att_i f4 [1, 1, 64]
00000000: 9b9a 8bbe ace7 943e 7808 f13d 7c67 e9be
00000010: a8fa aebe 270f 68be 273f fabe fd51 a43d
00000020: 0203 783e 2da6 abbe c143 cc3d 9abe 03bf
00000030: c26d 803e e546 8cbe 8cbf a0be 73e6 1d3c
00000040: 436e 9f3d b846 2f3e 808d 17be fbe5 873e
00000050: 497a 673e 3af2 323e 839c 723d 12c1 293e
00000060: 4750 573c b491 4e3d 0b91 afbe 02d7 83bd
00000070: 2c49 d5bc 3f18 ffbd ce75 953d 3b07 f23d
00000080: 9043 bdbc 6f98 183e 13d7 1b3e b302 d83d
00000090: 10e7 4c3e c596 73be eea8 8d3e 92b8 223c
000000a0: b517 bd3c f5ff b73e 4363 91be 11f8 023d
000000b0: 7282 8ebe c87b c43d 2499 1d3e acfb 5d3e
000000c0: a3a4 7e3e b303 ac3d f69a 913e 1ad9 d53c
000000d0: 991a a3be 1743 31be 2864 403e d38a 8ebe
000000e0: 9b91 f73c 78ea aebe 8c36 d3bd 44f5 12bd
000000f0: 2e76 7b3e 68ec 04be a016 6fbe b9fd 0dbe
-0.27266392 0.29083002 0.117691934 -0.45586765 -0.3417561 -0.2266203 -0.48876306 0.080234505
0.24219897 -0.3352522 0.099738605 -0.5146271 0.2508374 -0.27397838 -0.3139614 0.009637463
0.07784703 0.17116821 -0.14800072 0.2654265 0.22605242 0.17475215 0.059231292 0.16577557
0.013141698 0.050431922 -0.34290347 -0.06437494 -0.026035868 -0.124557965 0.0729786 0.11817785
-0.023103505 0.14901899 0.15218763 0.1054739 0.20010018 -0.23787983 0.27667946 0.0099317
0.023082593 0.35937467 -0.28396043 0.031974856 -0.27833897 0.09593922 0.1539045 0.21678036
0.24867491 0.08399143 0.28438538 0.026104499 -0.3185623 -0.17310749 0.18788207 -0.2784029
0.030220797 -0.3416326 -0.10313138 -0.035878435 0.245568 -0.12980807 -0.23348475 -0.13866319

gnn_layers.0.gnn.att_j f4 [1, 1, 64]
00000000: 7b1a 5e3e 8aaa 56be 89a6 dfbd 22e8 263e
00000010: 0a70 72be 2144 7ebe db37 23be 00cc 71be
00000020: 392d 01be 5b75 99bd 4ab4 543e 2978 ddbd
00000030: d3d3 8ebd 5823 e93d 7654 cebb 95be 45be
00000040: c861 833e 922f 98be 6224 57be 3843 663e
00000050: 8949 19be 3819 56be 1938 403e d60d 603e
00000060: 9c1a a23e 98ef 8d3e ff31 11bd 0e73 8dbe
00000070: 29ea 75bd d4b6 c83d 6342 00be b1ea 0ebd
00000080: 753f 3d3e f4a0 0dbe de93 0e3e 929b 7ebe
00000090: 675e 0a3d a35d 2e3e 6aa8 d0bb e860 be3d
000000a0: 6960 3abe 858b 05be c59f 5fbe ed3d b23d
000000b0: 4773 a1be 226a 87be f41d 6bbe 7895 84be
000000c0: c950 d23d 4eeb 1a3e e873 bb3d e1d3 8fbe
000000d0: 86b5 fdbd a60d ae3d 5bf5 4c3e d1b5 83be
000000e0: 39da 2e3e 3c9c 21be e71e 30be fcd6 cb3d
000000f0: 665b 823e 7d37 6e3d 4c0f a5be 4666 16be
0.21689789 -0.20963493 -0.10920436 0.16299489 -0.23675552 -0.24830677 -0.15939276 -0.23612976
-0.12614907 -0.07493087 0.207719 -0.10813934 -0.06973996 0.113836944 -0.0062966896 -0.19310983
0.2566054 -0.29723793 -0.21009973 0.2248658 -0.14969458 -0.20908058 0.187714 0.21880278
0.31660926 0.27721858 -0.03544807 -0.27626842 -0.060037766 0.09800497 -0.12525325 -0.034891788
0.18481238 -0.1383093 0.13923594 -0.24864033 0.033781435 0.17027907 -0.006367733 0.09295827
-0.1820084 -0.13041504 -0.21838291 0.08703218 -0.31533262 -0.2644816 -0.22960645 -0.25895286
0.10269315 0.15128824 0.09152967 -0.28091338 -0.123881385 0.08498697 0.2001547 -0.25724652
0.17075433 -0.15782255 -0.17199288 0.099531144 0.25460356 0.058158386 -0.32238233 -0.14687452

gnn_layers.0.gnn.att_em_i f4 [1, 1, 64]
00000000: dfe8 373d 2e0c ccbd 855d 72be 7bcf 5f3e
00000010: 53e8 9e3e 398f 893e 4bfb a8bd 498e c13d
00000020: e209 dfbe 587c 6b3d 5afc b53e 1457 c63d
00000030: 3f84 2e3e e27c d13e 2819 3e3e 2e25 d6bd
00000040: 16d5 c6bc 2084 20bd ca30 f33d fc4b 00be
00000050: a924 74bc 698e bcbe 6daf 8fbe 756e b9bd
00000060: 6a5d 43be 35e0 a83d c796 22bd 17a3 cbbd
00000070: 2c00 3ebe 9c1f 42be 7bfa 883d 61f1 cc3e
00000080: 7313 0bbe 9b6d 24be d2a4 fabd ca2c b6bd
00000090: b22f 853e 3269 773e 58de 463d 548f 38bd
000000a0: 096a fb3e 3740 be3d 01c1 f63b 37fb 473e
000000b0: 0bbd d7be 1ce5 31be 2ac3 d8bc a19a 653d
000000c0: 58ad 443e 48cb e13d b3c6 6c3d 4e54 c6be
000000d0: 35ac 683d a40e bcbe 7e89 f83d 5b9d 99be
000000e0: 0203 a2be 7f1d a0be 7a3f c9be a391 8e3e
000000f0: f223 fdbc faa4 6d3e fbed a2be ffbd 253d
0.044899818 -0.099632606 -0.23668487 0.21856491 0.31036624 0.26867083 -0.08251055 0.09450967
-0.43562227 0.05749163 0.3554409 0.096845776 0.17042635 0.4091559 0.18564284 -0.1045631
-0.02427153 -0.039188504 0.1187454 -0.12528986 -0.014901319 -0.368274 -0.28063527 -0.09054271
-0.19078603 0.08245889 -0.039694574 -0.09943216 -0.18554753 -0.1895737 0.066884 0.40027907
-0.13581638 -0.16057436 -0.12238468 -0.088952616 0.2601295 0.24161223 0.048551887 -0.045058563
0.49104336 0.09289592 0.007530332 0.19529425 -0.42136416 -0.17372555 -0.026460249 0.05605567
0.1920675 0.11025101 0.05780668 -0.38736194 0.056804854 -0.3672992 0.121355996 -0.30002865
-0.3164292 -0.31272504 -0.3930624 0.27845487 -0.03090093 0.23207465 -0.3182219 0.040464398

gnn_layers.0.gnn.att_em_j f4 [1, 1, 64]
00000000: dbc6 263e 667e 6bbc 3441 933d db09 10bc
00000010: be78 493e 5917 883d f742 dbbc 3a6e 77bc
00000020: 15b7 d1bd 2269 0f3d c21c 6a3c 9461 51bc
00000030: ba60 41bd 2165 9c3e 6ea2 b33d 94a1 de3d
00000040: 67db 7b3c 19bb 64bc 738b b9bd d8fc 153d
00000050: a659 b93c d778 efbc e645 36bd 87b9 ffbc
00000060: 77c8 903d 007b b4bd 09c9 88bd 7696 373d
00000070: 4d32 7a3d fa4c bd3b 4b9f 653d 1355 883d
00000080: 5d05 0cbe 4b99 23be c9cb c2bb 1353 0bbc
00000090: 1e03 69bd 934f 4b3d 5ef4 ca3d ccf4 ef3b
000000a0: fe4c 2a3e 29f8 cbbd aee6 62bd 68ad d23b
000000b0: 7a7d b1bd a76d 6cbd 4584 61be f65b 203d
000000c0: 7d86 9d3d 2ef4 6cbd c34f 0e3e a46e 75bd
000000d0: 213d 423d d367 ce3b 7f6c a4bd 5349 6ebe
000000e0: 413e 793c e89c bdbd 05e7 bcbd 78e0 39bd
000000f0: ff7c 11be 4b75 1abc 0194 b2bc b484 233e
0.16286795 -0.014373397 0.07190171 -0.008791412 0.19674966 0.06645078 -0.02676533 -0.015101964
-0.10239998 0.03501237 0.014289083 -0.012779612 -0.047211386 0.30545905 0.087712154 0.10870662
0.015372134 -0.013960623 -0.09059801 0.036618084 0.022625756 -0.029232426 -0.044500254 -0.031216396
0.07069486 -0.08812523 -0.066789694 0.044821225 0.061083127 0.0057769986 0.056060117 0.066568516
-0.13673921 -0.15976445 -0.0059447032 -0.008503693 -0.05688774 0.049636435 0.099098906 0.0073228832
0.16630933 -0.09959442 -0.055395775 0.006429363 -0.08666511 -0.05772176 -0.22023113 0.0391502
0.07691667 -0.057850055 0.13897614 -0.05991997 0.04742158 0.006298998 -0.080285065 -0.23270158
0.015212596 -0.09258443 -0.09223751 -0.045380086 -0.14207838 -0.009427379 -0.02179909 0.15968591

gnn_layers.0.gnn.bias f4 [64]
00000000: a8b1 d7bb fdca 073a 263c 6a3b f54a 7cbb
00000010: 58ae 5d3a 66ea 76bb 039f 023a bcca 273b
00000020: 7355 633b c164 303b 8a99 9fbb fdf0 0e3c
00000030: c798 993a 9a01 19ba a294 62b9 9c91 4b3b
00000040: c7e7 1cbc 6927 4dbb 9bcf 78bb 7429 99ba
00000050: 5ca8 143b fbe5 93b9 559b 793b 8dc7 ac3b
00000060: 81c0 5cbb 1f76 273a de02 c5b8 cae9 f13a
00000070: e838 9b3b 548f 773b 8038 c8ba 48e5 bb3a
00000080: 42fb 663b 2c43 e9b9 97ea ef3b 52f7 e3ba
00000090: 8b5d cf3a a27c 9b3a c1c0 d5bb 5940 d03b
000000a0: 6c31 d2b8 e131 5d3a 8d57 5e3b 42de 8dba
000000b0: 0f7b 84ba 4535 933a 0082 17bc a2f8 06bc
000000c0: 2c51 173b 548c 8abc d025 a43a 20dd 213b
000000d0: 393d 5bbb 5c09 65bb a771 f2ba e1f9 0c3b
000000e0: 8222 4d3b 14d8 ca3a 2323 ad3b a8f6 c1ba
000000f0: 7630 86ba 6b5f 8eb9 2db3 fb38 9d01 6a3b
-0.0065824576 0.0005180089 0.0035741418 -0.0038496826 0.000845646 -0.0037676333 0.0004982801 0.0025603017
0.0034688383 0.0026915523 -0.004870598 0.008724448 0.0011718505 -0.00058367255 -0.0002160841 0.0031062132
-0.009576744 -0.0031304008 -0.003796554 -0.0011685328 0.0022683358 -0.00028209374 0.003808697 0.0052728117
-0.0033684077 0.0006388146 -9.394226e-05 0.0018456515 0.0047370084 0.003777464 -0.0015275627 0.0014335299
0.0035244976 -0.0004449127 0.0073216665 -0.0017392433 0.0015820725 0.0011862705 -0.006523222 0.006355327
-0.00010022786 0.00084379135 0.0033926696 -0.0010823684 -0.0010107475 0.0011231086 -0.009247303 -0.00823799
0.0023089154 -0.016912617 0.0012523476 0.002469845 -0.003345324 -0.0034948206 -0.0018497006 0.0021511244
0.0031301086 0.0015475773 0.0052837296 -0.0014798241 -0.0010237831 -0.00027155443 0.00012001987 0.0035706528

gnn_layers.0.gnn.lin.weight f4 [64, 5]
00000000: 372f 80bd 0d3f 933e acd2 42be fecb 15bd
00000010: 4d4e 1e3d 8cfb fd3d b7f9 703e 8652 893c
00000020: be64 963e d949 a8bd f3b2 52bd 5bdf 443e
00000030: b9a1 8c3e e14c 8a3d 7a8d 043e 739d 403e
00000040: bf45 4abe 37fc d73d c349 203e 4c92 aabe
00000050: 9119 42be 721e 383d 4bac 343d 12ca 8bbe
00000060: d727 0bbe f5ef 6b3e a0cc c0bd 2a0a d1bd
00000070: 15d6 b4bd ea3b 0dbe 45c2 0c3e a849 4b3e
00000080: 72f9 db3c e433 95be 64b5 e8be cd84 61be
00000090: 4db4 4ebe 0c64 4cbd 4a10 3ebd c47e 993d
000000a0: 122f 25be b560 843d 0c02 fdbd 7a7b 443e
000000b0: 47c4 22bd 01f0 e43b 9780 68be 1f69 d93d
000000c0: d927 6bbe bb1d 7ebe 0f13 7dbd 5b57 43be
000000d0: f241 62bd 8fd5 703c c864 563d 703d d73d
000000e0: d46f 15be 1abb 253e fbe1 7abe 54c5 84be
000000f0: 8d30 143c d3a6 ce3d a65e 993e a650 7e3e
00000100: ba98 193e b68f 8dbe 8d32 cdbd 23fa 493e
00000110: b619 61be 837c 7cbe 9250 06be 5a1f 11be
00000120: e644 8cbc 65c9 81be e4f4 d5be 10a1 293d
00000130: ec84 063e 8036 d5bd 68dd ffbd 1882 6c3e
00000140: a004 32be 70e1 c53d bab3 f9bd 4463 633e
00000150: a74a 76bd ffa8 d6bd 6d9f 723e d609 35bd
00000160: 54b2 97be 3cbb 9cbd 9296 e13d 72f5 893e
00000170: 6f43 663e 94ee 08be aac1 6bbe 10ff 01bd
00000180: 3229 9d3d ea4f 6bbe f7f3 ab3c abd3 b33c
00000190: 5a58 ba3d bc41 6a3d 8b1f 8dbd efa3 333e
000001a0: 7791 bb3e c1e6 bc3d 9530 0e3d b940 913e
000001b0: 6b76 42ba 20bc 1f3e 2ddd 58be 6277 be3d
000001c0: 3ba8 6f3e c43e 60be b81c 61be 76c6 693e
000001d0: 6a78 7ebe 14b2 0c3e 4d30 3a3d e25f 2a3d
000001e0: 5e9a 4cbe 1a95 623e a931 7f3e 014c df3d
000001f0: 999e f63d 7319 4b3e cb01 4f3e 6b6b f63d
00000200: cfa9 8d3e 5ad3 8d3d 6ea5 033e ac5d 9dbd
00000210: 3d90 9abe 48ea 22bd cf42 f4bd 3473 423e
00000220: 9359 d9bd 4fcd 8a3d ac0a a9be b0f8 a0be
00000230: ca87 263d fa8f 0c3e b899 fabd 2a09 903e
00000240: e478 aebc 6347 6b3d d815 58be f617 7cbd
00000250: 92e4 a43d 5f05 5f3e bc71 293d c566 753e
00000260: bc91 dcbd f389 b23c c440 68be c1ae 1abe
00000270: 5bb3 783e b0cd 9b3d d6db fcbd aac1 6a3e
00000280: 0c63 cdbc 5831 d8bc f08a 1fbd 8c12 6fbe
00000290: 8739 fc3c d784 353d 9a1e 67bc 26a8 3dbd
000002a0: 84ab 243e a82d 8d3e 69bc 06be 55c8 3a3e
000002b0: 810d 9d3d c195 60be 860d 053d 2bdc 71be
000002c0: 849a 2dbe 5db6 80be 8118 cb3d c7ac 653e
000002d0: bb86 e7bd 1e64 563e 7dc5 15be 22b0 69be
000002e0: 61e8 283d e497 313e c932 813e 113e 6c3d
000002f0: 0cc8 d43d dc9b c5bd c624 783d 653f b5bd
00000300: d27e a03d 9f4e 9b3e c30a 0ebc ff87 41be
00000310: 12ee fb3d 9b28 04be bd28 083e 2549 053e
00000320: 930d 013e 4d07 23bd 3e61 93be 0f11 bcbd
00000330: 0e85 98bd a8f2 883e 1ffc 4fbe 7d7f 9d3e
00000340: 2d82 53be e077 353e 6d69 303d 51db 613d
00000350: b7ff 4abe fd94 ddbd 8958 98be f3a2 6cbe
00000360: ba6e df3d 6d4c eb3d f7a5 5d3e 1a96 5bbe
00000370: cddf cf3d ce16 33be 188a 74be 2310 9abe
00000380: aec9 343b d1d4 75be 121a b6bd d2f1 64be
00000390: fa4f 2cbe b203 523c ae09 883e 8913 04bb
000003a0: bd49 32be 22de 783d af6b 24be a22e 923c
000003b0: 4377 6bbd 0496 043e 5249 c5bd 9313 b4ba
000003c0: e3ad 993e 593c b03d 0b6c aa3e c1e6 5dbd
000003d0: ebb3 c8bd 2cad 1fbe 7fb8 5d3e eb32 40be
000003e0: 7b15 833e 3308 66be 483d 82be 0ec2 18be
000003f0: bcd8 8d3e 36db 973e e84c 7a3c 04ea 463e
-0.062590055 0.2875904 -0.19025677 -0.036571495 0.038648892 0.124014944 0.23532759 0.016762983
0.29373735 -0.0821721 -0.05144019 0.19225828 0.27467135 0.06752945 0.12944594 0.18810062
-0.19753169 0.10546153 0.15653138 -0.3331474 -0.18955065 0.04495091 0.044109624 -0.27302605
-0.13589416 0.23040755 -0.09414029 -0.10207017 -0.088298954 -0.13792387 0.13745983 0.19852316
0.026852343 -0.29141152 -0.4545089 -0.22023316 -0.20185967 -0.0499001 -0.046402253 0.07494882
-0.16131237 0.06463758 -0.12353906 0.19187728 -0.039737966 0.0069866185 -0.22705303 0.106157534
-0.2296442 -0.24816029 -0.061785754 -0.19076292 -0.05523867 0.014699354 0.052342206 0.10509765
-0.1459344 0.16184655 -0.24500267 -0.259318 0.0090447785 0.10090413 0.29955024 0.24835452
0.14999667 -0.27648705 -0.100194074 0.19724326 -0.21982464 -0.24656872 -0.13116673 -0.14172116
-0.017122697 -0.25348964 -0.417884 0.041413367 0.13136643 -0.10410786 -0.12493402 0.23096502
-0.17384577 0.096621394 -0.12192483 0.22205836 -0.060129788 -0.10481452 0.23693629 -0.044198833
-0.2962824 -0.076528996 0.11015047 0.26945072 0.22486661 -0.1337226 -0.23023096 -0.031737387
0.07673873 -0.22979704 0.020990355 0.021951517 0.09098883 0.057191595 -0.06890782 0.17543004
0.36634418 0.092237 0.0347143 0.28369692 -0.00074181583 0.15599108 -0.21178122 0.09300114
0.23404019 -0.21898943 -0.21983612 0.22829613 -0.24850622 0.13739806 0.04545622 0.041595347
-0.19980761 0.2212719 0.24921288 0.109031685 0.12041969 0.19833927 0.20215528 0.12032207
0.27668616 0.06925078 0.12856075 -0.07683882 -0.3018817 -0.03977421 -0.11926805 0.18989259
-0.10612788 0.06777441 -0.33015954 -0.31439734 0.040656842 0.13726798 -0.12236351 0.28131992
-0.02129788 0.057441127 -0.21102083 -0.06154629 0.08051409 0.21779393 0.04136823 0.23964985
-0.10769984 0.021794295 -0.22680956 -0.15105726 0.24287169 0.07607591 -0.12346618 0.2292544
-0.025071643 -0.026390716 -0.03895086 -0.23346919 0.03078915 0.04431614 -0.014106417 -0.046302937
0.16081053 0.27573895 -0.1315781 0.18240483 0.07668591 -0.21932127 0.0324836 -0.23619144
-0.16953474 -0.25139132 0.09916783 0.2242919 -0.11304995 0.20936629 -0.14626117 -0.22821096
0.04123724 0.17343098 0.25234058 0.05767638 0.103897184 -0.096488684 0.060581945 -0.08849982
0.07836689 0.3033342 -0.008669558 -0.18899535 0.12301268 -0.12906115 0.1329679 0.13016184
0.12602834 -0.039801884 -0.28785127 -0.09182941 -0.07447253 0.26747632 -0.2031102 0.30761328
-0.20655127 0.1772151 0.04306929 0.055140797 -0.1982411 -0.10819433 -0.29755047 -0.23109035
0.10909791 0.114891864 0.21645342 -0.21443978 0.101501085 -0.17489168 -0.23880804 -0.30090436
0.002758603 -0.24006964 -0.08891691 -0.22357872 -0.16827384 0.012818264 0.26569885 -0.0020153245
-0.17410941 0.060758717 -0.16056703 0.017844502 -0.057486784 0.12947851 -0.09633125 -0.0013738744
0.30015478 0.086052604 0.33285555 -0.054175142 -0.09799942 -0.15593404 0.21652411 -0.18769424
0.25602326 -0.22464065 -0.2543738 -0.14917776 0.27704418 0.29659432 0.015277125 0.19425207

gnn_layers.0.bn.weight f4 [64]
00000000: aac3 183f 74f9 733f ac22 783f 96f2 af3e
00000010: 5741 3f3f 0bad 0d3f 2193 433f 061e 4b3f
00000020: 0670 5d3f df90 303f 73b5 693f d3a5 e93e
00000030: 1813 063f 4ca2 5c3f ca20 b53e b3d5 793f
00000040: 3a5d ec3e dcd8 f03e b44c 0a3f 5da9 523f
00000050: 468e 673f afae 373f a720 383f c38a 6f3f
00000060: 290c 7f3f a956 383f 506c 433f a9d2 ca3e
00000070: 8771 313f 7deb 713f a694 0e3f 77f2 603f
00000080: 0d61 c83e 168a 573f 09f0 f23e 7ab3 133f
00000090: 0325 533f 5869 ce3e 19d9 b93e ecce 3c3f
000000a0: 1769 2a3f 7f6e fc3e 67a1 f23e fd6a 673f
000000b0: 0271 2a3f 4a1d 4d3f a74b f83e 24ea 6f3f
000000c0: 9fe6 0e3f 1831 d33e 465a 693f 3edc 4e3f
000000d0: 0bfd 283f d760 7f3f 1e11 7d3f 7a39 5f3f
000000e0: 6b24 333f b6c9 cc3e 8a7d 683f c8ae 5a3f
000000f0: 06e0 573f 42ce 793f 8271 f13e e417 503f
0.5967356 0.9530251 0.96927905 0.34364766 0.74709076 0.5534217 0.76396376 0.7934269
0.8649906 0.68971056 0.91292495 0.45634326 0.52372885 0.86185145 0.3537658 0.97591704
0.46164876 0.4704045 0.5402329 0.8228968 0.9045147 0.7175092 0.71924824 0.9357111
0.9962793 0.7200723 0.76337147 0.39613846 0.69313854 0.9449995 0.5569557 0.8786997
0.39136544 0.8419508 0.47448757 0.57695735 0.8247835 0.40314746 0.36298445 0.7375324
0.66566604 0.49303052 0.47388765 0.90397626 0.66578686 0.80122817 0.48495218 0.93716645
0.5582065 0.41248393 0.9115337 0.8080481 0.6601111 0.9975714 0.98854244 0.8719708
0.69977444 0.39997643 0.9081656 0.85422945 0.8432621 0.9758035 0.47156912 0.81286454

gnn_layers.0.bn.bias f4 [64]
00000000: cd6c af3e 3b68 2fbd 4654 ebbc b9e5 913e
00000010: 42ee 153e 0ff6 443e 8e34 4ebe 2cc9 0e3e
00000020: 407d 82bd 8199 313e 362e b1bd 640c d53e
00000030: 5370 59be 9c21 bfbd c175 af3e b682 93bc
00000040: 4482 663e 46f6 853e ded3 95be 077a 873d
00000050: 57f4 623d 1f08 0cbe f7b3 083e f493 373d
00000060: 5740 bbbc ee55 223e 5a60 493e 7539 733e
00000070: 23e5 4a3e 3093 3bbd 8a6c 803e 4932 9ebd
00000080: 02bf b93e 8800 dcbd 40fb 5f3e d167 5a3e
00000090: ca2a f93d 7c2e 993e 115b e3be 635e 253e
000000a0: ec6f 423e 3e34 bf3e ab4c 813e 6d9c b93d
000000b0: 0cda 42be 5e89 0a3e 1cba 9b3e 8171 5ebd
000000c0: 82e2 5ebe 9b5d a93e b194 903d b980 ec3d
000000d0: 4c74 463e 4546 f73c 3496 293d 10f1 8f3d
000000e0: d0da 29be 8694 9f3e aa6b a33d 1b8b 6cbd
000000f0: c947 e53d 9fbd 473d ead7 d43e baf5 cb3d
0.34262696 -0.04282401 -0.028726708 0.28495577 0.1464167 0.19234489 -0.20137236 0.13943928
-0.06371546 0.17343713 -0.08651392 0.41611016 -0.21234255 -0.09332582 0.34269527 -0.018006664
0.2251063 0.26164454 -0.29263204 0.06615072 0.055408802 -0.13674973 0.13349901 0.044818833
-0.022857828 0.15853092 0.19665661 0.23752387 0.19813971 -0.045794666 0.2508281 -0.07724435
0.3627854 -0.10742289 0.21873188 0.21328665 0.121663645 0.29918277 -0.44405416 0.16149287
0.18988007 0.37344545 0.25253806 0.09063039 -0.19028491 0.13528964 0.30415428 -0.054307465
-0.21766093 0.33079228 0.07059611 0.115479894 0.19380301 0.030184874 0.04140301 0.07028401
-0.16587377 0.31168002 0.0797952 -0.05774985 0.111953326 0.04876482 0.4157098 0.09958978

gnn_layers.0.bn.running_mean f4 [64]
00000000: 2eb2 dabb 1ed0 cc3c 02dd 013d 62f3 0cbc
00000010: 75f7 a8bc 8378 82bc b014 afbc b0ac 51bc
00000020: c2d0 4b3b bf2e c0bc d85f 5cbc 779a 24bc
00000030: a83d 1e3d c9ea d0bc 2077 2bbd 1832 103c
00000040: 6910 0cbc 5683 8fbc c135 343b 322e 02bc
00000050: bcc1 f03c 6ef6 c53c 5bdf 0abc 3ed4 543c
00000060: 68d1 b23c b0c4 163d b600 abbc efb5 c6bc
00000070: 047c 973c 9e73 0e3c 978c babb 480f 663c
00000080: 3600 2dbc 4ad3 9c3c 61c9 983b 5354 3fbc
00000090: 0336 28bc be53 9d3c 5a0b 383c 8a8a 473c
000000a0: 504c 9ebc 042b 523c 83ae afbc 6ee7 613b
000000b0: 7b99 fdbc 483b e2bc 2aee 66bc 7c12 0fbc
000000c0: 9761 b93c 291a 95bc c033 8b3c 80be 663c
000000d0: 86ea 2bbd 6d0a 4b3c 325c 793c 53bc ac3b
000000e0: f2be bb3c 91d7 23bd dcc9 9e3c cae0 893c
000000f0: 50d9 493c 1cc1 2fbd bdbe c7bb 9ca9 d83c
-0.0066740727 0.025001582 0.03170491 -0.008602949 -0.02062581 -0.015926605 -0.02137217 -0.01279752
0.003109977 -0.02345979 -0.013450585 -0.010046593 0.03863302 -0.02550258 -0.041861653 0.008801006
-0.008548834 -0.01751868 0.002749786 -0.007945584 0.029389255 0.024165358 -0.008476104 0.012990056
0.021828368 0.03680867 -0.020874362 -0.024256675 0.018491752 0.0086945575 -0.005693029 0.014041729
-0.010559132 0.01914372 0.004662678 -0.011677819 -0.010266784 0.01920497 0.011233175 0.012179026
-0.019323498 0.012827639 -0.021445518 0.0034470218 -0.030956974 -0.027616158 -0.014094869 -0.008732434
0.022629542 -0.01820095 0.01699245 0.014083505 -0.041971706 0.012392622 0.015219735 0.0052714734
0.022918198 -0.040000502 0.019383363 0.01683082 0.012319878 -0.042908773 -0.006095736 0.026448064

gnn_layers.0.bn.running_var f4 [64]
00000000: 24b0 ab3a b2ce 233e 57ae 343e 37b3 963b
00000010: bb3d f43d ea5f 9c3c 1f39 983d 0f01 b93d
00000020: aa0e 343b 1657 263e b0bc dc3c 189d 8f3d
00000030: 34bc 9b3e 07b1 453e c56e db3e 1957 833c
00000040: 4e40 933a 18b0 1d3d b4ee e33c 32b6 213c
00000050: 29c2 383e c2bd 183e 91b9 4b3d ed95 a23c
00000060: fecc f13d 0102 b13e 023e a03d b434 ec3d
00000070: 9bfc 3e3d 17d2 9a3b f93c 1f3b abcc 123d
00000080: 5f93 243d 0ef8 aa3d dcd4 093b a86f 583d
00000090: 2dd0 dd3c 1b0b e23d 52a0 623d 944a 8d3b
000000a0: 5474 833d 145d 5f3d 2fcb f53d 0438 b93a
000000b0: 3378 323e 7f2d 6c3e e00b f73a 45ca 0a39
000000c0: ea70 173e b503 953b 7842 a33c 173e 923d
000000d0: 8601 f23e 0e84 6b3d 4a0a bc3d f65c 7c3a
000000e0: 5d2f 933d 3c7c f63e 166d 713d 726b b33d
000000f0: fca2 9a3c 532c e73e 5aca a13c 553d 113e
0.0013098759 0.15996817 0.1764463 0.004599001 0.11925837 0.019088704 0.0743277 0.09033405
0.002747456 0.16244158 0.026945442 0.07012385 0.30417025 0.19305812 0.42857948 0.016032742
0.0011234374 0.038498014 0.027823783 0.009870099 0.18042816 0.14916137 0.049737517 0.01984688
0.11806677 0.3457184 0.07824327 0.1153349 0.046627622 0.0047247517 0.0024297817 0.035839718
0.040179607 0.08348094 0.0021031415 0.05284086 0.027076805 0.110372745 0.055328675 0.004311869
0.06418672 0.054532126 0.12001645 0.0014131074 0.17428665 0.2306423 0.0018848144 0.00013236057
0.14789167 0.004547561 0.019929156 0.07140749 0.47266787 0.057498984 0.0918165 0.00096268894
0.07186768 0.48141658 0.058941923 0.08760728 0.018876545 0.45151004 0.019749809 0.14183553

out_layer.mlp.0.weight f4 [1, 64]
00000000: 5b2d 5d3d 6db8 383d ae3d 923d 0ba7 67bd
00000010: a61a 06bd 8017 c3bc 1282 5d3d 12d5 b0bc
00000020: 4fae 853b 9ee6 a8bc 1112 e2bc f3b0 cd3d
00000030: c340 9abd af05 b3bc fa5f 9cbd 3ee9 97bd
00000040: 980d a13d e3b0 b5bc 4afd 82bd 6063 353c
00000050: 0a1d c53c 43df 8dbd 5f27 8c3d 4515 483d
00000060: f1d2 ec3c d0e0 f53c 36b3 6a3d 3f32 7a3d
00000070: 1d15 6e3d 9a5a 843d caa1 5cbd 4d27 8fbc
00000080: 4f9b 3abd b68d eebd c916 0ebd 39f0 d8bc
00000090: 1ddd a6bc 933f 863d d5f2 96bd 5470 4f3d
000000a0: c1b1 a5bc fbe7 e1bd 6b20 e8bc 8d60 fabc
000000b0: bb7d 173d ad1d 5cbc 1436 13bd d9f3 7b3d
000000c0: 8f6c 87bd 9cfa e53d afe0 1a3d e77e e73c
000000d0: 00e6 fcbc cdf2 603d 1832 6dbd 3205 01bd
000000e0: 70a4 61bd f739 26bd e548 303d 463a a53a
000000f0: c07e 093d 9de0 c8bc 0f18 03bd 7caf 353d
0.053998332 0.045097757 0.07140671 -0.05655579 -0.032740258 -0.023814917 0.054079123 -0.021585975
0.004079617 -0.02061778 -0.027596505 0.10043516 -0.075318836 -0.021853296 -0.076354936 -0.07417534
0.07863921 -0.022179073 -0.06395967 0.011071056 0.024061698 -0.069273494 0.06843447 0.04884841
0.028909178 0.030014426 0.057299815 0.061083075 0.058125604 0.064625934 -0.05386523 -0.017474795
-0.04555827 -0.11648123 -0.0346897 -0.026481735 -0.020369107 0.065550946 -0.07370535 0.050644234
-0.020226361 -0.11030575 -0.02833577 -0.030563617 0.03698514 -0.01343481 -0.035940245 0.061511848
-0.06612503 0.112294406 0.03781193 0.028258754 -0.030871391 0.054919053 -0.0579091 -0.031499095
-0.05508846 -0.040582623 0.043038268 0.0012605868 0.033568144 -0.024521166 -0.032005366 0.044356808
