data/wadi_test/best.pt (torch_old, 36625 bytes, 16 tensors)

embedding.weight f4 [112, 64]
000000 74 06 83 be 08 07 0e bd 07 32 a7 bb 39 7b 5e 3c
       -0.2559086 -0.034674674 -0.0051023993 0.013579183
000010 36 04 a4 3c f8 7e fb 3d 06 3c 06 be 56 8b 03 be
       0.02002154 0.12280077 -0.13108835 -0.12846121
000020 02 33 00 bd 38 a3 9b 3d f8 3d 93 bd b6 81 1b be
       -0.031298645 0.07599491 -0.07189554 -0.151862
000030 86 fc c2 3d 3c 18 97 3d 3c e7 08 3e 66 6a a2 bc
       0.09520821 0.07377669 0.13369459 -0.019826125
000040 65 11 9a bd 4c 7a 56 be 59 c8 3f be 89 ad f7 bd
       -0.07522849 -0.2094509 -0.1872877 -0.12093646
000050 04 28 1b 3e ea 8d 59 3d ca 4d d0 3d a0 59 b0 3d
       0.15151983 0.053113855 0.10171087 0.086108446
000060 4c 65 d4 3c fb 6d 1a be 11 00 8c bd 4c 62 cf bd
       0.025927208 -0.15081017 -0.0683595 -0.101261705
000070 93 26 de bd e8 0e 9b 3d 22 a0 03 be 6a 73 8a 3d
       -0.10847201 0.075712025 -0.12854055 0.06760295
000080 16 60 c2 bd d9 2a 76 3c d8 d1 d2 3d 61 80 db bd
       -0.09490983 0.015024864 0.10293931 -0.10717846
000090 64 ca 37 bd 5e f5 08 be 04 5e 09 be b4 14 33 be
       -0.04487075 -0.1337485 -0.1341477 -0.17488366
0000a0 5c a3 b3 bc d8 3d f2 3c 92 37 26 3d 78 11 26 bd
       -0.021928482 0.029570505 0.04058034 -0.040544003
0000b0 8a 88 92 bd db 98 0a bd 76 55 29 3c 8e b7 a6 bb
       -0.07154949 -0.03383718 0.010335317 -0.0050877994
0000c0 10 04 da bc e1 e7 81 b9 8c 80 5f be 82 90 dc 3d
       -0.026613265 -0.0002477756 -0.2182638 0.1076975
0000d0 81 6a ee 3c f4 c4 f1 bc 02 78 98 bc 3e 48 a7 3b
       0.02910352 -0.02951286 -0.018611912 0.0051050475
0000e0 35 2f f4 bd c1 df f3 bd c2 72 3a 3e d3 15 10 3e
       -0.119230665 -0.11907912 0.18207839 0.14070825
0000f0 30 64 ce 3d e1 30 90 3d 47 58 94 3d 32 d6 e4 3c
       0.10077703 0.07040573 0.072434 0.027934168
000100 46 9f 37 3b 18 3d 41 3c 56 dc 01 3d fe 52 8a 3d
       0.0028018518 0.011794351 0.03170427 0.06754111
000110 83 69 c1 3d ea 27 18 bd 35 1e 03 bd ad 56 8f be
       0.09443953 -0.03714744 -0.03201123 -0.27995816
000120 2b 52 8e be 94 36 83 be 90 cb 05 bd 78 16 b3 3c
       -0.27797064 -0.25627577 -0.032664835 0.0218613
000130 be 68 b9 3c d5 6d 48 3d 5a e2 6d 3b dc d8 f4 3c
       0.022632953 0.04893287 0.0036298246 0.029888563
000140 8e de 8e be 0f 43 04 bb 26 a4 ab 3d e4 a1 48 3d
       -0.2790417 -0.0020181572 0.08380918 0.048982516
000150 b9 78 4a 3d 64 ae 93 3c 2e d7 ce bb a8 2b 3d 3d
       0.049431536 0.018027492 -0.0063122725 0.046184212
000160 61 d3 aa 3c 4d 87 7a 3b 81 26 34 bc 55 0b 0b bd
       0.020852746 0.0038227618 -0.010995508 -0.033946354
000170 78 9b 4d 3c f4 ab 01 3e 24 ad 19 be 77 64 07 be
       0.012549274 0.12663251 -0.15007454 -0.13221918
000180 9c ff a9 ba 61 e2 60 3d 08 11 4a bb 2a f2 3b 3d
       -0.0012969854 0.05490339 -0.0030832905 0.045885243
000190 d8 fb 49 3c 26 f2 8f bd 64 e5 d8 bd 22 80 b7 bd
       0.012328111 -0.07028608 -0.10590628 -0.08959986
0001a0 fe 0b b6 bd 76 89 d0 be b9 cf 1c be 66 68 09 3d
       -0.08889006 -0.40729874 -0.15313615 0.033546828
0001b0 91 b4 cc 3b 87 53 00 3e de 38 4e 3e c8 4a 32 3d
       0.006247111 0.12531863 0.2013888 0.04352835
0001c0 89 65 97 bc 0d 91 59 bc 42 28 7b bd b4 1c 10 bc
       -0.018481033 -0.013279212 -0.06131769 -0.008795906
0001d0 63 54 71 be f2 aa 7e be 3e c5 c5 bd c3 9d da bd
       -0.23567347 -0.24869898 -0.096567616 -0.10674622
0001e0 1d c3 a9 3d 12 75 61 3c 32 f9 ce bc 65 7c b9 bd
       0.08289168 0.013760822 -0.02526531 -0.090569295
0001f0 67 30 17 3d 2a 1d 04 be 8f aa fc bd 6f c6 dd bd
       0.036911394 -0.1290175 -0.12337219 -0.10828864
000200 50 1d 4f bb 0b 4e b8 bc f3 0a 1a 3d 0f af 4b bd
       -0.0031603165 -0.022498151 0.0376081 -0.049727496
000210 7a 8b 5a be c3 64 51 3d 6d 79 47 bd 18 4f bb be
       -0.21342269 0.051121484 -0.048699785 -0.3658378
000220 20 c3 7c 3d 9c 00 c5 be 29 68 d3 3d 6d 15 29 3e
       0.061709523 -0.38477027 0.10322601 0.1651208
000230 5f b1 9a bc 81 a6 91 bd ff 05 86 3d 3c 13 93 3c
       -0.018883405 -0.07111836 0.065441124 0.017953508
000240 2e b9 84 be 5a be 21 be 6b 7b 09 3c 2e 54 f8 bd
       -0.2592253 -0.1579527 0.008391242 -0.12125431
000250 89 24 93 3d 80 6c 07 bc dd 2e 04 be a6 a6 28 3d
       0.07184703 -0.0082656145 -0.12908502 0.041174553
000260 6b d3 43 3d 42 8e 16 be d5 56 97 3d e1 24 c6 3c
       0.047809046 -0.14702705 0.07389609 0.024187507
000270 fb 97 8f bc e1 20 a5 3e 59 66 e3 bd a9 fd 1a 3e
       -0.017528525 0.32251647 -0.11103506 0.15135826
000280 d1 f7 c8 bd 62 5b bb 3d f4 8a 03 3e 57 26 1b 3e
       -0.09812892 0.09148289 0.12845975 0.15151344
000290 4e ad 9c 3c bf 66 0f 3d f2 7a 61 be e5 d4 82 bd
       0.019125607 0.035010096 -0.22019556 -0.06388263
0002a0 55 19 54 3c 45 73 fd bc 28 ff ae bd ed 38 4b 3e
       0.012945493 -0.030938754 -0.08544761 0.19845934
0002b0 10 1b c3 be c0 a9 08 3e a4 e4 fa 3d 40 29 67 be
       -0.38106585 0.13346004 0.12250641 -0.2257433
0002c0 06 9d d5 bc 42 12 22 3e dc e7 fa bd 62 fe a1 bc
       -0.026075851 0.15827277 -0.12251255 -0.01977462
0002d0 fe ac 11 be 9c 31 ec be 1b 12 8b 3d 18 81 43 3d
       -0.14226148 -0.461316 0.06790563 0.047730535
0002e0 61 fb 67 bc 3c e7 ea bc 08 26 2b 3e 59 f0 cb 3d
       -0.0141590545 -0.028674714 0.16713727 0.09957952
0002f0 29 ff ff 3d 9b f5 d1 bd 71 eb 42 be eb 9a 01 3e
       0.1249984 -0.10251924 -0.19035126 0.12656753
000300 18 0f 46 be c9 2e 86 bd 1b ca 18 be 8a 17 51 3d
       -0.19341695 -0.06551892 -0.14920847 0.05104784
000310 af 00 ce bd 05 d6 01 3e 25 5c 20 3e aa 59 3c be
       -0.10058724 0.12679298 0.1566015 -0.18393579
000320 11 4c 56 be 4d 61 0d be 53 60 bd bd 33 1d 11 3e
       -0.20927455 -0.13806649 -0.09246888 0.14171295
000330 42 0b eb 3d 2e 22 fa bd 49 03 80 bd ed a7 34 be
       0.11476757 -0.122135505 -0.062506266 -0.17642184
000340 a1 85 90 be e6 b8 2c be 26 8e 9d be ff bf 43 bd
       -0.2822695 -0.16867408 -0.30772513 -0.047790524
000350 8f 1a a5 bd 17 6e 6d be 4e bd b9 3d a6 c4 95 3d
       -0.08061706 -0.23186527 0.0906931 0.07312898
000360 a5 a7 70 3e 3b bf b2 be d2 75 39 3e b1 f3 39 3e
       0.23501451 -0.34911522 0.18111351 0.18159367
000370 35 62 45 bd 24 66 24 3e 85 98 8b be c2 be 52 bd
       -0.04818936 0.16054589 -0.272648 -0.051451452
000380 8a c6 e1 bb 28 b5 04 3e 8d e4 6b bd a4 3a ce bd
       -0.006890123 0.1295973 -0.05759101 -0.100697786
000390 1c 14 91 3d e6 6b 28 be 63 49 17 be 71 92 03 be
       0.07083914 -0.1644741 -0.14774089 -0.12848832
0003a0 1b dc e0 bd fc eb 9d be ee 5b 18 be 20 4a 0e 3e
       -0.10979482 -0.30844104 -0.14878818 0.13895464
0003b0 ea 25 86 be 5f 3b 92 3e 55 06 32 3e 71 a1 a3 be
       -0.262008 0.28560922 0.17385228 -0.31959108
0003c0 ed 71 2e bd fa 50 74 3e 68 6e 7f be e0 b6 25 3e
       -0.042589117 0.23859015 -0.2494446 0.16183043
0003d0 a7 c8 aa be db 17 9e be 1a eb 6b bd 08 06 47 3e
       -0.3335621 -0.30877575 -0.057597257 0.19435894
0003e0 0f b4 ba be e1 7c d9 bd f2 0b 57 3e 8d 4d 94 bd
       -0.364655 -0.10619522 0.2100065 -0.07241354
0003f0 76 7a e3 3d 9d eb fd 3d 9c 00 2a be a3 34 0a be
       0.11107342 0.12398455 -0.16601795 -0.13496642

bn_outlayer_in.weight f4 [64]
000000 d8 81 76 3f b5 a2 77 3f d2 6b 71 3f 66 bf 72 3f
       0.96291876 0.96732646 0.94305146 0.948233
000010 fa d6 72 3f e1 d0 7a 3f a8 f5 72 3f 9e b4 6d 3f
       0.9485928 0.97974974 0.9490609 0.92853725
000020 74 76 76 3f 63 7f 80 3f 80 f2 80 3f d9 9f 78 3f
       0.96274495 1.0038875 1.0074005 0.9711891
000030 41 f6 79 3f c4 42 78 3f a9 74 7a 3f f7 1d 72 3f
       0.9764138 0.96976876 0.9783426 0.9457697
000040 02 4a 81 3f 8b 20 70 3f 7a 4a 77 3f 89 82 78 3f
       1.010071 0.93799657 0.9659802 0.9707418
000050 fc 70 7a 3f b9 c8 70 3f 66 00 6f 3f e7 3f 75 3f
       0.9782865 0.9405628 0.9335998 0.9580063
000060 40 fc 71 3f 09 77 7a 3f 09 e0 79 3f d9 bd 7d 3f
       0.9452553 0.97837883 0.97607476 0.9911781
000070 d6 be 78 3f 56 7c 80 3f a0 c3 7e 3f 26 82 76 3f
       0.9716619 1.0037944 0.9951725 0.9629234
000080 8a d9 7e 3f d7 4a 79 3f d2 d6 80 3f 52 22 74 3f
       0.9955069 0.9737982 1.0065558 0.9536487
000090 3e f1 7c 3f fd 18 72 3f bf 77 7f 3f 49 32 72 3f
       0.98805606 0.9456938 0.99792093 0.9460798
0000a0 21 60 79 3f ef 19 81 3f 34 f2 76 3f de 95 77 3f
       0.97412306 1.0086039 0.9646332 0.96713054
0000b0 46 4b 71 3f 33 24 7e 3f bd 82 7d 3f b2 06 6f 3f
       0.94255483 0.99273986 0.99027616 0.9336959
0000c0 68 da 86 3f aa 32 77 3f 4c b2 77 3f 79 a3 7c 3f
       1.0535402 0.9656168 0.96756434 0.9868694
0000d0 e4 0c 74 3f 26 60 85 3f 44 cd 7b 3f 67 b8 74 3f
       0.9533217 1.0419967 0.98360085 0.95593876
0000e0 60 20 7b 3f 19 07 77 3f d9 ad 7e 3f 08 c0 6f 3f
       0.98096275 0.96495205 0.9948402 0.9365239
0000f0 aa 65 73 3f 08 11 6f 3f 90 8e 75 3f 53 fc 71 3f
       0.95077 0.9338536 0.9592066 0.9452564

bn_outlayer_in.bias f4 [64]
000000 a0 1c 2e bd 74 af 02 bd b6 16 c1 bd a0 78 05 be
       -0.042507768 -0.031905606 -0.0942816 -0.13034296
000010 52 39 f9 3c d5 98 73 bd d3 e8 44 bd b4 54 ac bd
       0.03042284 -0.059471924 -0.0480736 -0.08414593
000020 99 0f 85 3d 84 f3 7c 3d d0 14 87 3c 41 d4 c3 bb
       0.06497116 0.061755672 0.016489416 -0.0059762304
000030 e6 e8 d9 3d b4 ef aa bc 71 ac a0 3c fb 56 6a bd
       0.10640125 -0.020866252 0.019613476 -0.057211857
000040 be f8 ea bd 9d 87 30 bd 79 7b 38 3c 72 e0 71 bc
       -0.11473225 -0.04309808 0.011259907 -0.014762985
000050 42 49 94 b9 c9 ef 43 3d c8 b9 7a bd 28 f2 1a bd
       -0.0002828334 0.0478361 -0.06121233 -0.037828594
000060 2b 80 18 bd 12 1d 72 3d 09 ae 0e 3c 05 56 f1 bc
       -0.037231605 0.059109755 0.008708485 -0.029459963
000070 e2 a3 0e bd 24 a1 b3 3c e6 60 11 bd 0d 08 13 bc
       -0.03482426 0.021927424 -0.0354928 -0.008974087
000080 33 0d 97 bb 9a 3a 9f bb 5b c4 2d 3d da a0 85 3c
       -0.0046097278 -0.004859281 0.042423587 0.016312052
000090 d3 d8 82 bd a2 99 ca 3c 43 45 c2 bd 1f d7 3d 3d
       -0.06389012 0.024731461 -0.09485867 0.046347734
0000a0 a5 60 85 bd 27 59 d0 bd de 2a af bc 7f 69 07 bd
       -0.06512574 -0.101732545 -0.021382745 -0.033059593
0000b0 0b f2 58 3d 6d 7f fd bb 4f b1 a9 3b f7 38 05 3d
       0.052965205 -0.0077361376 0.0051786075 0.03252503
0000c0 db a0 67 3c 38 66 db bc 6d df f2 bc 67 8c 71 bd
       0.014137472 -0.02678214 -0.029647553 -0.05897179
0000d0 51 17 9e 3d 69 e6 89 3d dc fb 90 bc b1 64 9f bc
       0.07719291 0.067334004 -0.01769822 -0.019457193
0000e0 b2 24 8f bc b9 2d 16 bc 9d ad 9e bd dd 18 c5 bd
       -0.017473552 -0.009166175 -0.07747958 -0.09623883
0000f0 92 0f ce bc 5b a4 0c bd d8 95 0b 3d 76 8c 56 3d
       -0.025153909 -0.03433643 0.03407845 0.052380048

bn_outlayer_in.running_mean f4 [64]
000000 b9 60 34 3b 3b 2d 38 bc 93 76 a8 bb 1a e7 49 3b
       0.0027523472 -0.0112412525 -0.0051410883 0.0030807913
000010 fc 16 17 bd 8b f5 ea bb f4 78 03 bc 16 f6 94 bb
       -0.036887154 -0.0071703843 -0.008024443 -0.0045459373
000020 d8 17 ac bc df 05 cd bc 5f a6 06 bc f1 2c c0 ba
       -0.021007463 -0.025027214 -0.008218377 -0.0014661831
000030 7c f9 ef 3c a8 19 a8 ba df 16 89 bb 1b e9 62 bc
       0.029293768 -0.0012825029 -0.0041836346 -0.013849522
000040 0e 41 07 bc 89 53 ef b9 15 ab ed bb 8c b0 0a bd
       -0.008255256 -0.0004564787 -0.0072530606 -0.033859774
000050 61 ec 49 ba 7b 39 24 bd e1 a8 80 bb 7c e1 69 bb
       -0.00077027647 -0.04009388 -0.003926382 -0.0035687378
000060 de ea 8f 3a b8 35 56 bd 87 71 83 3a 3a 57 ab bc
       0.001098003 -0.052297324 0.0010028341 -0.020915616
000070 9d bf 7e bc fe db 57 3c 37 c8 d9 b8 c3 b2 df ba
       -0.015548614 0.013175009 -0.00010384659 -0.0017066825
000080 28 46 a0 3a 97 98 33 3b 20 eb f4 3a 3a f4 bb ba
       0.001222794 0.0027404183 0.0018685795 -0.0014339753
000090 62 7a 9f 3b aa b4 1e bd 5a 00 80 bb d2 57 01 bd
       0.004866884 -0.038746513 -0.003906292 -0.031577893
0000a0 06 74 4f bc e7 cf a6 ba 39 be c1 bc 84 f8 6d 3b
       -0.0126619395 -0.0012726755 -0.023650276 0.0036311457
0000b0 3a ed 15 bd 0e c0 5b 3c ba ab c1 3c 71 7b 22 bd
       -0.03660319 0.013412489 0.023641456 -0.039668504
0000c0 5b e0 67 bc e5 83 9c 3b 63 87 f7 37 79 a9 0b 3c
       -0.014152612 0.0047764652 2.9507739e-05 0.008524292
0000d0 b7 10 ff bc 98 1d 62 bd f0 4f 91 b9 b6 94 e4 b9
       -0.0311359 -0.055204004 -0.00027716113 -0.00043598347
0000e0 da 13 c8 3a 3a 28 b4 38 21 0b 4e bc 9a 8c aa bb
       0.0015264705 8.5905616e-05 -0.0125758955 -0.0052047493
0000f0 ed a8 ad ba 56 df e3 bb f6 50 23 bd 57 43 c3 bc
       -0.0013249196 -0.006954114 -0.039872132 -0.023835821

bn_outlayer_in.running_var f4 [64]
000000 d1 81 0b 3b 7e fd 7f 3a 1f 81 bf 3a e4 56 46 3b
       0.0021287093 0.00097652513 0.0014610625 0.0030264193
000010 e3 ea 58 3b 03 f2 29 3b 59 6e 64 3a 1b 25 50 3b
       0.0033098988 0.0025931604 0.0008713953 0.0031760398
000020 3e 04 9f 3a 64 dc 82 3a 59 a4 d5 3a 6e e4 2a 3b
       0.0012132002 0.0009983894 0.001629959 0.0026076096
000030 76 2c 2e 3b 10 f1 4f 3a 30 11 c8 3a 12 e3 80 3b
       0.0026576794 0.00079323445 0.0015263911 0.003933319
000040 e7 74 3a 3b 5e 05 ea 3a 9b e5 35 3b fd 1c 17 3c
       0.0028451027 0.0017854383 0.0027755264 0.00922322
000050 e2 c5 49 3b 17 5e 9a 3b 26 94 26 3a b4 13 a8 3b
       0.0030788113 0.0047109234 0.00063544733 0.005129302
000060 84 53 dc 3a e8 55 98 3b b8 f9 70 3a 9d 7f d5 3a
       0.0016809558 0.0046489127 0.00091924844 0.0016288642
000070 d3 f9 07 3b 05 12 05 3b eb 7d 36 3b 37 a5 15 3b
       0.0020748272 0.002030493 0.002784605 0.0022834071
000080 12 40 92 3a 88 9b 13 3b a3 24 c2 3a a9 12 96 3a
       0.001115801 0.0022523124 0.0014811944 0.0011449653
000090 67 92 81 3a 02 58 a0 3b e0 fd 92 3b b9 8e 3c 3b
       0.000988555 0.004893304 0.0044858307 0.0028771593
0000a0 5d c1 bf 3a 8d 2f 89 3b a8 7e d2 3b a5 69 04 3b
       0.001462977 0.0041865767 0.00642379 0.002020457
0000b0 22 43 ac 3b 78 92 10 3b c3 58 18 3b 7b c1 79 3b
       0.0052570263 0.0022059958 0.0023246265 0.0038109708
0000c0 bc 2f a4 3a 89 91 5b 3a 59 68 05 3b 26 97 85 3a
       0.0012526433 0.00083758734 0.0020356386 0.001019214
0000d0 b7 67 95 3b 03 92 48 3b 4e 7a 4b 3a 1e 6c 32 3b
       0.004559483 0.0030604608 0.000776206 0.0027225087
0000e0 9f fb f1 3a 20 e9 60 3a a0 70 21 3b b5 99 78 3b
       0.001846183 0.000857966 0.002463378 0.0037933413
0000f0 e1 01 ac 3a aa 5c 05 3b bc f0 45 3b 0a 88 14 3b
       0.0013123119 0.0020349422 0.0030203303 0.0022664093

gnn_layers.0.gnn.att_i f4 [1, 1, 64]
000000 0f b7 5f 3e 2f 3f 93 be 30 85 2b be 77 1a be be
       0.21847175 -0.28759143 -0.16750026 -0.37129566
000010 eb 16 a3 3e b8 75 58 3d b1 57 5b 3d e6 b5 64 be
       0.31853423 0.05284664 0.053550426 -0.22335014
000020 c7 10 88 bc 83 96 01 3e 1f b8 90 bd 84 2f 61 be
       -0.016609563 0.12655072 -0.07066368 -0.21990782
000030 1d 04 3a bc 5a 38 16 be f3 0f 41 bf ed 0a 17 be
       -0.01135352 -0.14669934 -0.7541496 -0.14750262
000040 8d d8 86 3d 61 59 8b 3e 78 6e be 3e a7 61 1b bd
       0.065842725 0.27216628 0.37193656 -0.037934925
000050 46 da ad 3d c4 ab fc 3e 89 58 30 bf a9 0c 95 be
       0.08488898 0.49349797 -0.68885094 -0.2911122
000060 4e 51 55 3c ff 61 c8 bd 6d 8b fd be 93 7d 4a 3e
       0.013019873 -0.09784316 -0.49520436 0.19774465
000070 1e 3d 87 be 24 c6 c8 3e 1f ac 88 3e f1 7f 74 bd
       -0.26413816 0.3921367 0.26693818 -0.059692327
000080 37 70 3f bf ac 94 0e bf 0d f6 cd be ee c6 66 3d
       -0.747806 -0.55695605 -0.40226784 0.056342058
000090 8d 38 84 3d a1 e5 ec 3e e3 ad fc 3d 55 2f 2f 3e
       0.06456099 0.46268943 0.12337854 0.171079
0000a0 4c 37 53 3d b5 a8 02 3e dc 02 39 bf 00 ce 03 3d
       0.051566407 0.12759669 -0.7226999 0.03217888
0000b0 18 91 42 bd 18 9c 90 be 6e 12 b4 be b0 73 b1 3e
       -0.047501653 -0.2824409 -0.3517031 0.34658575
0000c0 7a b5 e2 3d b9 27 a5 bd 97 a3 e0 3e e4 49 55 be
       0.1106977 -0.08064217 0.4387481 -0.20828968
0000d0 86 e9 91 3e 2c ed 0f 3f 90 8f b2 bc ca ca 44 3d
       0.28498477 0.5622127 -0.021796972 0.048044957
0000e0 32 27 20 3e 41 78 8a bd 80 53 4f 3d 66 8c 2f be
       0.15639952 -0.06761218 0.05061674 -0.17143402
0000f0 16 ae 82 3d 12 1f ad 3e 91 44 99 3e e3 67 ab be
       0.063808605 0.33812767 0.29935125 -0.33477697

gnn_layers.0.gnn.att_j f4 [1, 1, 64]
000000 fc 61 5f 3e c1 01 8b be 13 34 13 be a0 ca 07 3e
       0.21814722 -0.27149776 -0.14375333 0.13260889
000010 e1 bd 35 3e 0f 9e 3a 3d fc 12 e4 3c a0 b9 02 3e
       0.17748214 0.045560893 0.027841084 0.12766123
000020 16 90 8f 3e 0c 45 87 3e 90 30 2c be be 9a d0 3d
       0.28039616 0.26419866 -0.168154 0.10185765
000030 09 ee 2b 3e da 27 a0 bd b4 74 d4 be bc ad 87 be
       0.16790022 -0.07820101 -0.41495287 -0.26499736
000040 3d 5a 23 3e e3 30 3c be bc 3b 08 3e d1 04 c3 3d
       0.15952392 -0.18378024 0.13304037 0.09522403
000050 8a 6a 4d 3e 58 4c 8f bd cc fd dd be c6 14 38 be
       0.20060173 -0.06996983 -0.43357694 -0.17976674
000060 87 a3 20 3e 5a 49 61 be b6 e7 19 3d 4e 91 7b 3e
       0.1568738 -0.22000638 0.037574492 0.24567148
000070 79 da 0d be c0 68 2f 3e 46 ce 3d be b9 15 50 3e
       -0.13852872 0.17129803 -0.18535718 0.20320787
000080 a4 25 36 be a6 b0 5f be b6 3d 4b bd d9 5b 8e be
       -0.17787796 -0.2184473 -0.0496194 -0.2780445
000090 c4 20 1b 3c cd 32 f7 3d 0a 20 58 3b 75 60 c7 3e
       0.009468261 0.12070236 0.003297808 0.38940778
0000a0 5d 74 63 be b3 77 7f 3d 49 ee c1 be 5a 0b 36 3e
       -0.22212358 0.062370013 -0.3787711 0.17777768
0000b0 31 45 81 3e d0 60 18 3e c0 87 04 3e 7b f9 7a 3e
       0.252481 0.14880681 0.1294241 0.24509232
0000c0 a8 ca 61 bd 6d 5f a3 3e ab a7 79 3e 39 9a 93 3b
       -0.05512491 0.31908742 0.24380367 0.0045044688
0000d0 32 71 a6 3e f8 9b b2 bd 05 f6 2a 3e 05 4a c2 3e
       0.32508236 -0.08721155 0.16695412 0.37947097
0000e0 f2 a1 c8 3d 16 c8 f5 bd 8c 1d f4 bd 33 bf a3 be
       0.097965136 -0.12001054 -0.11919698 -0.3198181
0000f0 13 ec 9f bd db 3a eb 3b 29 14 9f bd 8e ed 91 be
       -0.078086995 0.007178647 -0.07767517 -0.28501552

gnn_layers.0.gnn.att_em_i f4 [1, 1, 64]
000000 46 b1 83 3e 0b 73 5c be cf d9 b3 be 9e 27 b8 be
       0.25721186 -0.2152826 -0.35127112 -0.35967726
000010 df af 9f bd 96 1c d6 be 2b 06 a2 be 38 57 e5 be
       -0.077972166 -0.41818684 -0.3164533 -0.44793105
000020 ba c8 ae be 2f fb c3 be 9f bc 74 3e 9e ca 99 be
       -0.34137517 -0.38277575 0.23900078 -0.30037397
000030 0e 42 95 3e 67 5f 0b be fe e1 be 3d 09 8e 10 3d
       0.29151958 -0.13610612 0.09320448 0.035291705
000040 ee ff bf be c3 58 d3 3d bd a4 6a 3e f9 d2 04 bf
       -0.37499946 0.10319664 0.22914405 -0.5188442
000050 91 07 60 3d c2 17 94 be f1 68 89 be 4a 1f f2 bd
       0.054694716 -0.28924376 -0.26837876 -0.11822374
000060 68 f8 d8 3d e3 e0 d0 be 65 e3 6d 3e c9 89 5b 3c
       0.10594255 -0.40796575 0.23231275 0.01339955
000070 20 ee a1 3c e3 ab c3 3e db 7f cb be d7 29 b3 bc
       0.019766867 0.38217077 -0.39745983 -0.021870537
000080 31 57 a2 3e 84 41 44 3c d0 6a 96 3e 91 b1 ba be
       0.31707147 0.011978511 0.29378366 -0.36463597
000090 74 ed 60 3e b1 bb 51 bc f2 1c 81 be a8 b7 dd be
       0.21965581 -0.012801097 -0.25217396 -0.4330418
0000a0 08 69 55 3d f0 55 17 bf f5 f8 a7 be 03 d0 ad 3e
       0.05210212 -0.59115505 -0.32807127 0.33947763
0000b0 da 6c a8 be ab 52 a6 3e d8 7a f3 3e 68 20 66 be
       -0.32895547 0.32484946 0.4755466 -0.224733
0000c0 80 f7 90 be 09 3a 7e be 0a d1 48 3d 75 4a 74 3e
       -0.28313828 -0.24826826 0.04902748 0.23856528
0000d0 d1 10 a8 be 98 af 0a bf c2 9d 84 3e d3 fa 49 be
       -0.3282533 -0.54174185 0.2590161 -0.19724588
0000e0 c3 a6 ed 3d 04 f2 74 3e 17 d3 cc be 2f 76 32 be
       0.11604073 0.23920447 -0.400048 -0.17427896
0000f0 dd f9 79 be 65 20 a8 be f2 64 93 be 7f c1 25 be
       -0.24411722 -0.32837215 -0.28787953 -0.16187094

gnn_layers.0.gnn.att_em_j f4 [1, 1, 64]
000000 fa 63 d6 bd dc 91 75 be 75 ad 44 3e fc db 6c 3a
       -0.10468288 -0.23981422 0.19206794 0.0009035466
000010 d6 44 61 be cb 68 bf be 95 0d ee 3d 20 22 60 be
       -0.21998915 -0.37384638 0.11623684 -0.21888018
000020 ac 5c 8f be a1 f6 f6 be 8e 2b 54 be 60 1e 92 be
       -0.2800039 -0.48235038 -0.2071974 -0.285388
000030 16 7d a5 3e 29 dd b0 bb 18 c6 3f be fb 9d 2e bd
       0.32321995 -0.005397458 -0.1872791 -0.04263113
000040 af b9 a1 be 65 27 06 be 57 6f 11 be 24 b8 53 be
       -0.31586978 -0.13100965 -0.14202629 -0.20675713
000050 83 0a 7c be fa f2 9b be 99 be f1 bd 75 36 0d bd
       -0.24613385 -0.30458814 -0.11803932 -0.034475762
000060 83 c9 30 3e 8a 19 b3 be cc 5e 1a bd bb 4b b3 be
       0.1726437 -0.34980422 -0.03768806 -0.35018715
000070 84 47 15 3d 4f d8 ac 3e f9 e6 51 be 62 20 70 be
       0.036445156 0.3375878 -0.20498265 -0.23449853
000080 2a 0b bc 3e 64 69 46 3e 2a 11 82 3e 20 5d 3a 3c
       0.36727268 0.19376141 0.2540372 0.011374742
000090 b8 e2 cb 3c 32 70 b8 be 94 82 a5 be 27 bb ae be
       0.024888381 -0.36023098 -0.32326186 -0.3412716
0000a0 27 ef 11 3e 84 a1 75 be 51 2c 08 be 05 da a4 3e
       0.14251386 -0.23987395 -0.13298155 0.32197586
0000b0 0a aa c5 be bb d1 85 3e 4b f7 f9 3e 32 21 be be
       -0.38606292 0.26136574 0.48821482 -0.371347
0000c0 56 ba 95 3d 6e c0 84 3e 29 c9 08 be 56 9a c9 3e
       0.073109314 0.25928062 -0.13357987 0.3937556
0000d0 1a 0e 89 be 37 36 ec be 92 c9 ff 3d e2 d9 2a 3e
       -0.2676857 -0.46135113 0.12489618 0.16684678
0000e0 d2 ac da bd 7d 9f ca bd 1c c8 10 be c9 9a 13 be
       -0.10677494 -0.09893701 -0.14138836 -0.14414515
0000f0 71 82 a7 be fc 09 b1 be 45 19 e4 be a7 1e b0 be
       -0.32716706 -0.3457793 -0.4455053 -0.34398386

gnn_layers.0.gnn.bias f4 [64]
000000 63 c6 3e bb bd f5 ba ba 5d 06 59 bb c1 c8 3d 39
       -0.0029109947 -0.001426391 -0.0033115365 0.00018099231
000010 70 79 04 bc 16 77 09 3a 3d a2 85 b9 3a 25 5e bb
       -0.008085594 0.00052438804 -0.00025488614 -0.00338967
000020 c8 2c d1 ba 57 ec 29 3b 34 b8 0e 3b 0c bf 2c ba
       -0.001595878 0.0025928223 0.0021777274 -0.00065897475
000030 c4 0b ca bb 7e cd c2 b9 75 4c 29 3b 1d 0a 01 3c
       -0.0061659534 -0.00037155667 0.0025832925 0.007875946
000040 13 0c c3 39 08 4e 44 3b 40 aa 11 bb 13 a3 8b bb
       0.00037202294 0.0029953737 -0.002222672 -0.0042613833
000050 95 51 9d 3a a3 c4 aa bb 4a 0f 1c 3c ef b4 ac 3a
       0.0012002463 -0.005211429 0.00952513 0.0013176481
000060 00 a6 c7 3b 47 6f d3 ba 55 27 f1 3b cb 6a a5 bb
       0.006092787 -0.0016131186 0.007359425 -0.005048131
000070 30 22 91 bb 80 63 a6 3a 46 ab 2e ba 98 e7 e2 bb
       -0.0044291243 0.0012694448 -0.0006663095 -0.006924581
000080 08 2b d8 ba 74 b0 11 3c 50 b0 8b 3c 3a 12 42 3c
       -0.0016492316 0.008892167 0.017051846 0.011845166
000090 d0 65 8d 3b d9 85 9a 3b da 91 2a 3b cb 22 94 bb
       0.0043151155 0.004715663 0.0026026876 -0.004520749
0000a0 04 58 03 3c da c9 9f bb f5 d8 8d b9 f8 70 2a bc
       0.00801659 -0.0048763575 -0.0002705526 -0.01040291
0000b0 97 4c 2a bb 21 89 01 3b 8f 0d e4 ba 13 4b fd ba
       -0.0025985593 0.0019765573 -0.001739906 -0.0019324742
0000c0 e5 77 11 3c 67 d1 b6 ba 42 6e 93 3b 9c a0 57 3a
       0.008878683 -0.0013947905 0.0044992277 0.0008225532
0000d0 6f 90 de bb 16 8a 31 3b 87 0f c1 ba aa 9c 81 3a
       -0.00679212 0.0027090362 -0.0014729359 0.0009888608
0000e0 1e 09 15 3b f3 df 91 bb 1a ca 44 bc 8a d5 8d 3b
       0.002274103 -0.0044517457 -0.012011075 0.0043284344
0000f0 d5 93 2d 37 63 98 6f b9 03 f7 f5 3a ca b0 18 3c
       1.0346023e-05 -0.00022849585 0.0018765632 0.009319494

gnn_layers.0.gnn.lin.weight f4 [64, 5]
000000 06 2c ca 3d ae 9f d1 3d 06 66 06 be 98 42 ca 3d
       0.09871678 0.102355346 -0.13124856 0.09875983
000010 43 07 93 be c8 d5 81 3e c1 91 36 3e 86 8e 11 be
       -0.28716478 0.25358415 0.17829038 -0.14214525
000020 0e af 8c 3e e5 32 80 3e ba 4d 8e 3e 26 89 a0 3e
       0.27477306 0.2503883 0.27793676 0.31354636
000030 9d c9 66 3e 00 25 35 3d 3e 13 8e 3e 58 26 57 3d
       0.22537847 0.04422474 0.27749056 0.0525268
000040 e3 82 9a be 9a ae 73 3e c3 1f 6b 3e 39 d5 11 3e
       -0.30177984 0.23797074 0.22961335 0.14241494
000050 ef 7f 00 3e 2b b9 4d be 26 bc 24 be a3 5c cf be
       0.12548803 -0.20090167 -0.16087398 -0.40500364
000060 95 39 ca ba cd ff 3e bd 04 07 14 be 5a 97 05 3e
       -0.0015428538 -0.04663067 -0.14455801 0.13046017
000070 3e 23 6e 3d 55 13 bd 3d 48 18 13 be eb 99 5a 3e
       0.05813908 0.09232203 -0.14364731 0.21347778
000080 05 cf 0b 3e ec e6 83 3e cf ac 2d 3c b6 a4 43 be
       0.1365319 0.25762117 0.010600283 -0.19105801
000090 d7 37 85 3e c7 e9 d6 bd 55 e7 7d be 03 25 7d bc
       0.26019165 -0.10493808 -0.24795277 -0.015450719
0000a0 ed 69 16 3e 43 51 17 be 8f 73 72 be 98 d8 8f be
       0.14688845 -0.14777093 -0.23676895 -0.28094935
0000b0 6e 63 a7 bc 4d 14 81 be 3d 03 75 3d 44 2b a6 bd
       -0.020433154 -0.252108 0.05981754 -0.08113721
0000c0 a2 fe c3 be 65 66 17 be c3 ec ea 3d 78 95 17 bd
       -0.38280207 -0.14785154 0.1147094 -0.03700778
0000d0 93 8c 24 3e 6b 03 20 3e dc 16 6b 3e 99 1c 65 3e
       0.1606925 0.15626304 0.22957939 0.2237419
0000e0 a3 a2 2a 3e 80 66 c2 bd 2c b0 a8 3d b6 96 54 3d
       0.16663603 -0.094922066 0.08236727 0.05190154
0000f0 70 63 6c 3d 9f 71 bf bd 5c 0b 8e be 9b 25 86 3e
       0.05771202 -0.093478434 -0.27743042 0.26200566
000100 2b 2f e6 b8 e0 f8 1c 3d ac 8d 2d 3e e5 12 94 bc
       -0.0001097604 0.038323283 0.16948575 -0.018075416
000110 2e 7f 09 3e 92 a6 95 3e 46 54 16 be 47 a0 57 3d
       0.13427421 0.29228646 -0.14680585 0.052643087
000120 f8 41 1d 3d 20 b0 ad 3b 05 ed 75 3e 2d f4 bb 3d
       0.03839299 0.0053005368 0.24016197 0.09177432
000130 aa 34 25 3e 6b 24 1b be 30 50 42 be a8 31 8a 3e
       0.16133371 -0.15150611 -0.18975902 0.2699101
000140 90 f7 2c be 48 2b 10 3e 03 78 89 be e4 c9 12 be
       -0.16891313 0.1407901 -0.26849374 -0.14334828
000150 2c 51 9f be c2 23 26 be 3e 0f 59 bd 29 c5 89 be
       -0.31116617 -0.16224578 -0.05299305 -0.26908234
000160 f1 f4 a6 3d 9b 5b 25 be ba c5 e8 3c c4 02 77 be
       0.081521876 -0.16148226 0.028414596 -0.24122149
000170 65 8f 32 3e df 84 8e be c8 14 ca be 28 03 11 3e
       0.17437513 -0.27835748 -0.3946898 0.1416136
000180 56 b7 81 be 29 df 49 3e 0a 49 f5 3c 77 04 d8 3d
       -0.25335187 0.19714035 0.029942054 0.105477266
000190 31 63 81 3e 4d 13 94 3e 2c 83 87 3d 44 37 24 3e
       0.2527099 0.28920975 0.06616816 0.16036707
0001a0 21 c6 79 be b1 68 8d bd 27 b1 7d bd 5f 79 5d bd
       -0.24391986 -0.06904734 -0.061936524 -0.054070827
0001b0 1d 06 3f 3c 0f c7 dc be 7b a1 60 3d 9c ff 5b be
       0.011659172 -0.4312062 0.0548415 -0.21484226
0001c0 b8 e5 87 bd fa af f8 3d c1 2a 41 3e 0d 24 72 3e
       -0.06635612 0.1214294 0.18863966 0.23646565
0001d0 76 71 24 bd 98 e0 aa 3e 05 42 bd bd 93 65 0b 3e
       -0.040147267 0.33374476 -0.09241108 0.13612966
0001e0 9f 94 31 3d 7d 05 23 3e ba 43 5e be 09 fb 97 be
       0.043354627 0.15920062 -0.21705523 -0.29683712
0001f0 8a c9 64 3d 3e 17 75 be 01 ed 13 be c9 40 2e 3d
       0.055856265 -0.23934647 -0.14445879 0.042542253
000200 aa 1b 5f 3d 6c 69 d2 bd 76 81 0b 3e cd ca 2c be
       0.054469742 -0.10274014 0.13623604 -0.16874237
000210 9d f7 81 bd cd d6 b2 3d 1f 4a 33 3e 0c 4b 1f 3e
       -0.063460566 0.08732376 0.17508744 0.15555972
000220 ae d2 89 3e f9 89 1a bc 06 94 02 be 98 39 ec bd
       0.26918548 -0.009432309 -0.12751779 -0.11534423
000230 4c e1 94 3e a7 46 e9 3d 20 2b 70 be 96 e5 5f 3e
       0.29078138 0.11390429 -0.23453951 0.21864924
000240 ae b6 85 3e 39 03 2c be 87 3b 45 3d d8 ce a3 be
       0.26115936 -0.16798104 0.048152473 -0.31993747
000250 db 79 97 be 9f af 0f bf a3 c6 b5 bd a0 b8 81 be
       -0.29585156 -0.5612735 -0.088757776 -0.2533617
000260 ef ca 3f be 4f 0f 1a be 6b 2d 90 3b 72 94 7b bd
       -0.18729757 -0.15044902 0.0043999455 -0.061420865
000270 10 46 08 3d 41 64 f3 3d 74 a6 4f 3c 1f 3c 21 3e
       0.03326994 0.11884356 0.012673963 0.1574559
000280 c8 aa 76 be 7b 1e 8b bd 0c d6 20 3d 1e 03 57 3e
       -0.24088585 -0.06792923 0.03926663 0.20997283
000290 ae 27 b2 3e b3 2e 84 be 1a 9b 00 be f6 e5 01 bd
       0.34795898 -0.2581688 -0.12559167 -0.03171345
0002a0 e4 c1 f1 bc a4 8f 82 3e 56 9d 68 bd d2 c6 4a 3e
       -0.0295114 0.25500214 -0.056790672 0.19802406
0002b0 ee 6f 3c be fe e0 9d 3c 71 7f 73 3e b8 77 a3 3e
       -0.18402073 0.019272324 0.23779084 0.31927276
0002c0 57 94 21 3d a4 0e 82 3e 67 14 23 be 9f 4b 35 be
       0.03944811 0.25401795 -0.15925752 -0.17704628
0002d0 c7 42 41 3d 1d 02 a0 bd 85 2a 23 3e fe 1d b0 3c
       0.047182824 -0.07812903 0.15934189 0.021498676
0002e0 f9 11 6b be f4 25 7b be 2f b5 23 3e 39 af c9 bd
       -0.22956075 -0.24526197 0.15987085 -0.09847874
0002f0 70 2b c5 3d c1 9e 97 be e7 be df 3b e9 d4 61 3e
       0.09627426 -0.29613307 0.0068281773 0.22053875
000300 56 fb 06 be ef 87 f9 bd 80 9d 5f be 34 f3 0e bc
       -0.13181815 -0.121841304 -0.21837425 -0.008724976
000310 fc 0d 98 be 05 6e 87 be 97 19 d2 be 8a 8e 22 be
       -0.2969817 -0.26451126 -0.41035149 -0.15874687
000320 30 bf 33 3e c2 61 66 bd 58 2c a2 3e cd f1 83 bd
       0.17553401 -0.056245573 0.31674457 -0.06442604
000330 8a 87 a5 3d ac da c3 3d 87 72 92 bd 78 e8 e2 3c
       0.08082493 0.09563193 -0.071507506 0.02769874
000340 f6 c6 0c 3d 14 77 70 be 26 3f 8c be cf 51 47 be
       0.03436943 -0.23482925 -0.27391928 -0.19464801
000350 66 72 3a 3e 90 ed 1b 3e 0f b8 93 3e a9 34 c9 bb
       0.18207702 0.15227342 0.28851363 -0.006140311
000360 44 d0 3d bd 6e 95 97 3e 94 bd 89 be ee 9d 30 be
       -0.046341196 0.29606193 -0.2690245 -0.17247745
000370 7e 69 b3 be c1 87 3b be 05 a0 0e be 8c ed 81 bd
       -0.35041422 -0.18313505 -0.1392823 -0.063441366
000380 cc 15 08 be 9f cd 02 3e a5 7d ec 3c f1 0e 99 be
       -0.13289565 0.1277375 0.028868506 -0.29894212
000390 e6 59 94 be 04 03 00 3e d2 e9 5e be 2d f6 87 be
       -0.28974837 0.1250115 -0.21768883 -0.26555005
0003a0 05 aa 7c be f4 d2 f2 bc b5 b8 91 3e 2c 4e 43 bd
       -0.24674232 -0.029641606 0.28461233 -0.047681972
0003b0 0e 4a a9 be f3 4f 37 be 7e bb 08 3d 08 22 a3 be
       -0.33064312 -0.17901592 0.03338193 -0.318619
0003c0 df 28 33 bd 9f 10 46 3e 5c 5e 51 3e fc 90 ac bc
       -0.04374015 0.19342278 0.20446151 -0.021065228
0003d0 7d ec 7e bd d5 c8 27 be a4 7f 1c 3e 7f 50 83 be
       -0.06223725 -0.16385205 0.15283066 -0.2564735
0003e0 67 3e 9b be ab 3c 98 3c b1 fd 31 be bc d6 2c 3e
       -0.30321047 0.018583616 -0.17381932 0.1687879
0003f0 ff df 7f bd f3 3e 58 3d b1 31 00 bf 2b 35 75 3e
       -0.06246948 0.052794408 -0.50075823 0.23946063

gnn_layers.0.bn.weight f4 [64]
000000 e4 8d 80 3f 58 59 b0 3e 01 3c 07 3f 85 49 67 3f
       1.0043302 0.34443164 0.52825934 0.90346557
000010 08 e2 69 3f 88 24 05 3f ce 9b 2a 3e 2a fa 7a 3f
       0.9136052 0.5200887 0.16660997 0.9803797
000020 e7 16 3f 3f e9 e7 3d 3f 14 23 6f 3e 93 b5 c7 3e
       0.7464432 0.7418199 0.23353225 0.39005718
000030 24 5e 00 3f a9 8c 6e 3e 52 45 95 3e ca 81 5d 3f
       0.5014365 0.23295845 0.2915445 0.8652617
000040 56 d0 5e 3e 1f cf 75 3f 68 36 75 3f e6 30 4c 3f
       0.21759161 0.96019167 0.9578614 0.79762113
000050 b1 c0 0d 3f 3b d3 74 3f a1 72 59 3e f0 e2 7c 3f
       0.5537215 0.9563481 0.21235134 0.9878378
000060 7f a9 79 3f d4 dd 72 3f f6 00 80 3e 5a 18 dd 3d
       0.97524256 0.9486973 0.25000733 0.1079566
000070 03 b9 59 3f 89 c6 71 3f b1 cc 38 3f 1e e8 00 3f
       0.8504793 0.94443566 0.72187334 0.5035418
000080 e1 3e d0 3e 49 28 71 3f fc ee 8f 3e 5a d7 8b 3e
       0.40672973 0.94202095 0.28112018 0.27312738
000090 61 f9 ef 3e 88 59 6d 3f 2b ce 73 3f 9d 78 74 3f
       0.46869949 0.9271474 0.9523646 0.9549654
0000a0 6d 1f 53 3f bb 86 5d 3f 91 86 7c 3f 9d 3f 78 3f
       0.82469827 0.8653371 0.9864283 0.96972066
0000b0 b7 a9 75 3f a0 cd 82 3f e8 22 57 3f f6 5c 79 3f
       0.9596209 1.0219002 0.8403764 0.9740747
0000c0 4f cb 0a 3f fd fa 53 3f 05 15 7d 3f f6 39 b5 3e
       0.54216474 0.8280485 0.988602 0.35395783
0000d0 d7 ad 71 3f 7b d6 6e 3f 4b 4a 35 3e d3 dc 7b 3f
       0.94405884 0.9329602 0.17704122 0.98383826
0000e0 5c da 82 3f 82 31 ae 3e 3c e1 03 3e 0b 42 0d 3f
       1.0222888 0.34022146 0.12878889 0.551789
0000f0 65 c0 91 3e e2 9c 03 3f 10 20 78 3f e0 a8 6b 3f
       0.28467098 0.5141126 0.96923923 0.9205456

gnn_layers.0.bn.bias f4 [64]
000000 5e df 93 3c 65 8f 5a 3e e8 ec 63 be e9 08 69 bd
       0.018050846 0.21343763 -0.22258341 -0.056893263
000010 84 cc 7f 3d a3 3f 33 3e 51 ff b1 3e b9 d4 72 bb
       0.0624509 0.17504744 0.34765103 -0.0037053062
000020 cc 50 ef bd f1 c6 26 be 27 ab db 3e 5b ac 45 3e
       -0.11685333 -0.16286828 0.42904016 0.1930403
000030 38 19 a4 3e 73 c9 48 3e 63 d6 98 3e f0 76 8c 3d
       0.3205049 0.19608097 0.29851064 0.06858623
000040 f1 4a ae 3e fc b3 a8 3c 87 48 ed 3c 26 91 94 3d
       0.3404155 0.020593636 0.028965248 0.07254247
000050 47 fd 46 3e cc ca dd 3c 0b 44 31 3e ad c4 96 bb
       0.19432555 0.02707424 0.17311113 -0.0046010823
000060 d5 7a 85 3c 01 6c fe 3c 4c d8 90 3e f2 95 d7 3e
       0.016293922 0.03105736 0.2829002 0.42106587
000070 18 09 9d 3d 05 0a 22 3d d6 60 ff 3d c9 df 34 3e
       0.0766775 0.039560337 0.12469642 0.17663492
000080 5e a2 b0 3e d2 c4 59 3d 74 0a 9a 3e 58 a4 51 3e
       0.34498876 0.053166218 0.300861 0.20472848
000090 a5 dd 89 3e e1 7b 46 3d 5a 35 56 3d 3b c1 06 bd
       0.26926914 0.048457984 0.052296974 -0.032899123
0000a0 46 07 9c 3d d5 66 48 3d 98 4a 08 b9 12 22 e0 3c
       0.07618575 0.048926193 -0.00012997759 0.027359996
0000b0 32 fd b1 3c a8 3e 4d bc c8 75 8e bd 5b b4 37 bc
       0.021727178 -0.012527145 -0.06956059 -0.011212434
0000c0 a0 f5 99 3e 5e f7 aa bd 14 6c b8 3c d7 d8 db 3e
       0.3007021 -0.08347963 0.022512473 0.42938873
0000d0 6f 32 27 3d eb d5 93 bd 6d 20 c0 3e ce 8c bf 3c
       0.04081958 -0.07218536 0.3752474 0.02338257
0000e0 32 1f 66 3c db 29 68 3e 08 98 cb 3e 47 63 00 3e
       0.0140455235 0.22672217 0.39764428 0.12537871
0000f0 5f 54 37 3e 2b ae 22 3e dd e4 fd bc 54 92 48 3d
       0.17903279 0.15886752 -0.03099292 0.048967674

gnn_layers.0.bn.running_mean f4 [64]
000000 67 b0 b2 bc 41 e0 07 3e 82 8c 3c 3e 52 af 72 3d
       -0.02181263 0.1326914 0.18412974 0.05924923
000010 86 82 e8 bd 3e fd 5a 3c 54 8d 9e 3d 52 21 57 bd
       -0.1135302 0.013366042 0.077418 -0.05252201
000020 83 e1 b7 bd 67 f0 04 be 48 a1 d6 3d 95 0c 90 3d
       -0.0897856 -0.12982331 0.10479981 0.0703365
000030 90 79 79 bc 54 16 ce 3d 8b 95 08 3d a0 63 1a 3d
       -0.015226737 0.100628525 0.03334574 0.037692666
000040 0a df fb bd 50 f8 b7 bd d2 75 f3 bd 59 36 02 3d
       -0.12298401 -0.08982909 -0.11887707 0.03179011
000050 0f 4e b3 3d 36 89 d6 bd 80 b8 bc 3c 6b 39 c4 3d
       0.08755123 -0.1047539 0.023037195 0.09581264
000060 54 73 13 bd eb d0 85 bd 58 bc 0e 3d 3b 84 c2 3c
       -0.035998657 -0.065339886 0.034847587 0.023744693
000070 1b 62 d2 3d 02 20 59 be 8c d3 e4 bd b2 51 11 3d
       0.102726184 -0.21203616 -0.11173162 0.0354783
000080 fb c6 36 3d 08 57 b9 bc 79 47 54 3d 50 4e 6c 3d
       0.044623356 -0.022624508 0.051825974 0.057691872
000090 7c e2 a0 bb 2c d7 6e bd 7a b8 1e bd e6 36 44 be
       -0.0049098115 -0.058310673 -0.03875015 -0.19161567
0000a0 b3 bb a8 3d b2 36 ee bc 60 51 c8 3c 65 a8 2c bd
       0.08238926 -0.029078815 0.024452865 -0.04215278
0000b0 c5 32 15 be 0a f1 43 bd b7 6c a4 bd d1 df 0f be
       -0.14570148 -0.047837295 -0.08028548 -0.14050223
0000c0 80 16 5a 3d ac c4 bc bd e7 a7 a4 bd b5 f2 d0 3d
       0.053244114 -0.092172 -0.08039837 0.10202543
0000d0 03 ec ea bd 6b 8e a8 bd 1a 41 9e 3d ba 1c ee bd
       -0.11470797 -0.08230289 0.07727261 -0.11626573
0000e0 be 63 2d bd 1e 5a 76 3c 38 70 83 bb ea 4c 7f 3d
       -0.04233145 0.015036134 -0.0040111803 0.06232921
0000f0 d6 fb f2 3d cc 9b 8b 3d aa 63 4b bd 70 58 0b bc
       0.1186444 0.06816825 -0.049655594 -0.008504972

gnn_layers.0.bn.running_var f4 [64]
000000 b0 7a 37 3a ea f4 fc 3c 54 54 77 3d 9e 43 c8 3b
       0.0006999178 0.030878503 0.060383156 0.006111576
000010 e5 f0 9d 3c 2c 7c a6 39 c6 53 2b 3c 2a d7 88 3b
       0.019279907 0.00031754503 0.010456985 0.00417604
000020 bf 96 5d 3c 1b 17 f7 3c 51 d3 94 3c e7 a4 0d 3c
       0.01352471 0.030162385 0.01816717 0.008645273
000030 87 b0 24 39 af 3e 90 3c fc 0b de 3a e5 86 cc 3a
       0.0001570602 0.017608015 0.0016940827 0.0015604167
000040 cb 3e d7 3c b4 05 73 3c 2a d8 c0 3c 98 1f 14 3b
       0.02627506 0.014832903 0.023540575 0.002260184
000050 7b 25 53 3c ca 3d 8c 3c c6 dd bd 39 8e b3 7b 3c
       0.012887354 0.017119307 0.00036214123 0.015362633
000060 53 97 4b 3b b5 44 e4 3b 11 2c ac 3a f8 c0 c1 3a
       0.0031065538 0.0069661983 0.0013135691 0.0014782241
000070 ff 80 a1 3c 92 e0 a0 3d a8 01 ae 3c b2 2b 4e 3b
       0.01971483 0.078553334 0.021241024 0.003145915
000080 82 87 7e 3b 4b b3 ea 3a f2 04 0c 3b 1d dc 71 3b
       0.0038838093 0.0017906217 0.0021365252 0.003690488
000090 16 64 47 39 79 3d e0 3b 72 a7 48 3b 0f 63 77 3d
       0.00019015404 0.0068432656 0.0030617383 0.060397204
0000a0 cc 26 1c 3c f5 59 89 3a 71 12 a8 3a 41 a8 ea 3a
       0.009530734 0.001047908 0.0012822879 0.0017902927
0000b0 80 18 10 3d 84 1f 8f 3b 1c cc 2f 3c 1e 7d 07 3d
       0.035179615 0.0043677706 0.010729816 0.033078305
0000c0 cb 96 5f 3b 9c 15 69 3c cb 0f 4c 3c eb 8c 90 3c
       0.003411698 0.0142263435 0.012454937 0.01764532
0000d0 63 6b a4 3c b7 36 4e 3c a0 67 2f 3c ea 29 c4 3c
       0.020070737 0.012586287 0.0107058585 0.023945767
0000e0 76 6b 62 3b 51 86 2f 3a ef af 37 39 8a d6 bd 3b
       0.0034548915 0.0006695735 0.0001751778 0.0057933973
0000f0 12 0a c7 3c ec e4 04 3c 94 5e 96 3b 17 b1 18 3a
       0.024296794 0.00811122 0.0045889113 0.0005824728

out_layer.mlp.0.weight f4 [1, 64]
000000 7e 17 a1 bc c4 f3 2e bd bb eb f8 bc ff 9f 89 ba
       -0.019664522 -0.04271294 -0.030385843 -0.0010499953
000010 7c d1 89 3c a6 76 85 3c 26 75 e8 3c 50 57 a9 bc
       0.016823523 0.016291928 0.028376173 -0.020671517
000020 51 4d b4 3c 03 25 0b 3d f7 c9 bf 3c da cc 49 3c
       0.022009524 0.033970844 0.023411734 0.012316907
000030 ec 4a 65 bc d3 0b 75 3c 6f 16 b6 3c ca 7d 07 bd
       -0.013994914 0.014956432 0.022227494 -0.033078946
000040 4e cb 04 bd 96 2d 9c bc 1d 6f 86 bb a1 3c c5 bc
       -0.03242045 -0.019064706 -0.004102601 -0.024076762
000050 e9 e9 88 3c 16 c6 99 3c d5 bd e1 3c 0c 2b 5e 3b
       0.0167131 0.018771213 0.02755634 0.003390017
000060 08 9f 74 bc 56 49 ea 3c d5 b7 a0 3c 15 44 f9 3c
       -0.014930494 0.028599422 0.019618908 0.030427972
000070 5d 5d f6 bc 1c 56 82 bc b8 2e a9 bc 93 7c 88 3c
       -0.030073816 -0.0159102 -0.02065216 0.016660964
000080 f8 83 0e 3d 96 75 3e bc 1f 1e e9 3c 6f 8c 36 3c
       0.034793824 -0.011624714 0.028456746 0.01114188
000090 c3 dd 91 bc 00 ce 89 3c 55 b6 b8 bc 55 35 4a 3c
       -0.01780594 0.016821861 -0.02254788 0.012341817
0000a0 4c 6b e7 bc ee 10 cd bc a8 ac b8 bb 70 6f 8f bc
       -0.028249405 -0.025032487 -0.0056358166 -0.017509192
0000b0 9e aa 67 3c 06 f8 7c bc e1 e6 7a bc 5f 92 9a 3c
       0.014139799 -0.015439993 -0.015313835 0.018868623
0000c0 9a c2 20 bd f8 b0 79 bc e3 bc 93 bc 51 3f c8 3c
       -0.039248087 -0.015239947 -0.018034404 0.024444254
0000d0 71 16 e5 3b 5d ed 07 3d c5 4a d3 3c 1f da 33 bc
       0.0069912006 0.03318535 0.025792489 -0.010977297
0000e0 64 d8 62 bc dc 99 98 3c 8d 80 e8 3c 57 01 4c 3c
       -0.013845537 0.018628053 0.02838161 0.012451491
0000f0 13 2a 5f 3c 36 0c bd 3c 98 7d 0d 3d c4 b4 3a 3c
       0.013620871 0.023077112 0.034543604 0.011395637
