data/swat_test/best.pt (torch_old, 21210 bytes, 16 tensors)

embedding.weight f4 [51, 64]
00000000: 6a50 1d3c d9a1 cc3d 19d4 9bbb 6ba8 993d
00000010: 21dc 733d d222 1fbe 8646 fd3d 64af bb3d
00000020: 503e c13c b274 de3d cbf6 163d 64b8 c0bd
00000030: 16ee 5ebe 4a34 f83d 3a85 103d 2204 d83d
00000040: 2658 7bbe 6175 ef3d 9e3a 6a3d 9a03 8fbc
00000050: f2e7 91bd 4b9b ab3d 5f2a 0bbd a46c 9abd
00000060: 126b 853d a453 923e 780d f33c 7648 2ebd
00000070: 28ff 3d3d 7184 243d e4b4 98bc 9777 2bbe
00000080: 3fa2 ae3d 549e f1bd 84a6 f4b9 fdba 5fbc
00000090: 83c7 dcbb b5ad ec3d 5af8 93bc 765f 85bd
000000a0: 8a9c 46be d7cf 9d3d 99df 06bd 221f 9a3d
000000b0: f587 04be 1fd8 f33b 1cd2 b6bd 2ed6 b33e
000000c0: 63e7 8f3d 26ad d83c 77bd c13c 5233 e1bb
000000d0: 970c be3c 11c4 26be 162e 603d 9174 a8bd
000000e0: feec 033d 56b8 d23c 75cf 603b 4392 b33d
000000f0: 43b3 8cbc fc3e 18bb 0b09 5abe 9a6b 573d
00000100: d0ca 923d 49b4 913d 4e35 46bd 9d24 09bb
00000110: b9cc 4a3b 1834 073d 429e 8abd 5fed cc3a
00000120: 1ff3 e1bd 803a 803e 7126 7bbd 436c f1bd
00000130: b700 58bd e826 a03d d7e1 eb3c 7e08 acbd
00000140: 6448 2d3e d08b f0bd 6c38 c43d 8d96 74bd
00000150: 58a4 3d3d 2d17 f1bd 75cd 13bd 9b63 653d
00000160: 769f 21bd f26f a13e 6395 5bbe ef07 bd3d
00000170: d437 44be a662 efbd fa89 023e 50b6 d6bd
00000180: 0335 533d 4bd4 893d bfdc 933e 5a8e 293e
00000190: 7d18 76bc 7bae efbd 775e 07bc 7243 43bc
000001a0: e932 033d e216 29bb 9552 1e3e fa35 b33d
000001b0: a9ed 513e 2c5a c63d b938 143e f95a 7d3e
000001c0: d1e6 083d 444e bcbd 75ab 28be 34c1 5cbc
000001d0: a710 6fbd b615 513d 3c3e c0bd 8c1f 3a3e
000001e0: 2589 9c3d 6956 aa3d 6de2 483e 31be 093d
000001f0: 3fe1 b53c 3653 8a3d a2d7 a03d c4e3 f7bd
00000200: b931 9cbd d666 4dbe 5f35 a5bd 344b 283e
00000210: 403e c33c 961c 21bd c538 c1bd 73a7 143e
00000220: d7e6 163e ef75 443e 25c5 1fbe 9ec0 c63d
00000230: 577d 22be 9cc4 e03d 377c 663d 52a6 743b
00000240: 18db fdbe e293 3e3e eb07 c43d dec7 32be
00000250: 0634 8abc 7d56 f9bb 02ee f1bc 6332 2d3d
00000260: a5ab 63be 3238 0d3d cda5 13bd 5460 fcbb
00000270: 201f a73c d873 6a3d 3d97 abbc 2ef6 803d
00000280: 6b9d 01bf 67a0 f23d a48d 83bd 8c0f 563b
00000290: 8546 1b3e f34c af3e 21b8 85bd 2bc8 943d
000002a0: c93b b7be fcea ce3d 51b4 ebbd 8be8 a93c
000002b0: 3948 33bd 5276 723d 865b 2d3d 0121 09bd
000002c0: fdb5 033e 0714 423b 51a4 023e 533d 3b3e
000002d0: 701f 583e 0c71 b9be ecc7 043c 6305 2c3c
000002e0: 7f4c 91bd 3a61 41bd 1e5a 363c c0bb 68be
000002f0: 1dc5 df3d d80b 89bc 02af bb3d 9c6d 3cbe
00000300: 841c 97bd 5f29 0bbe b249 a9bd 44d2 e7bd
00000310: f49e 123e cda0 92bd 8463 05bd cd4a 103e
00000320: 21f1 d53d d44d 0f3e cd52 15be 097f cc3c
00000330: 195d d43d 5810 413e 18ff bdbd 61b2 183e
00000340: fc30 9ebe 62e7 023e 0780 51bd 37c5 ffbd
00000350: c192 01be 4cef b83d 7123 a2bd 5b71 1b3c
00000360: 952a ad3d 2e51 3abe 1979 e03d b05b 5abd
00000370: b92a e53d 9d7b a7bc b496 00be 3f86 693c
00000380: 05b8 2c3e 9c5b 9c3d ec5d 52be 679c 603d
00000390: 6d13 813d 91f1 183e b3ac 85bd 65de 0cbe
000003a0: 4f79 f1bd 7634 913d e77e d3bd 75b3 4a3d
000003b0: f54f bcbd fee6 8cbd dac0 8cbd 7e14 7b3d
000003c0: efa6 c5bd 26ff 343c 8a05 313e 135e ad3d
000003d0: b77c bfbd e9b1 15be b3df 9abd 089c 6bbd
000003e0: 5516 8bbd a0d3 84bd 33fc 54bd 9139 d93d
000003f0: 292d 793d fb47 04bc 7346 cbbd 0cd3 36bd
0.009601692 0.099918075 -0.0047555086 0.07502826 0.059536103 -0.15540627 0.12366967 0.091643125
0.023589283 0.108621016 0.036856454 -0.0941017 -0.2177051 0.12119348 0.035283305 0.10547663
-0.24545345 0.1169231 0.057184808 -0.017457772 -0.07124318 0.08379229 -0.033975955 -0.07540253
0.06514563 0.28579438 0.029669508 -0.042549573 0.046385914 0.04016537 -0.018640943 -0.16744839
0.0852704 -0.11797777 -0.0004666337 -0.013655421 -0.006737651 0.115565695 -0.01806276 -0.06512348
-0.19395652 0.07705658 -0.032928083 0.07525469 -0.12942488 0.007441535 -0.08926794 0.35124344
0.070265554 0.026449751 0.023649914 -0.006872573 0.023199363 -0.16285731 0.05473145 -0.08225358
0.032208435 0.025722664 0.0034303342 0.087681316 -0.017175322 -0.00232309 -0.21292512 0.05259285
0.0716759 0.07114465 -0.04839068 -0.0020926364 0.0030944778 0.033008665 -0.067684665 0.0015634707
-0.110327 0.25044632 -0.061315957 -0.117882274 -0.052735057 0.07819921 0.028794212 -0.08400057
0.16922146 -0.11745417 0.09581074 -0.05971389 0.04629931 -0.117719986 -0.03608461 0.056003194
-0.039458714 0.3153072 -0.21443705 0.09230029 -0.19161922 -0.116887376 0.12747946 -0.10483992
0.051564228 0.06729945 0.28879353 0.16558209 -0.015020487 -0.117032014 -0.008262268 -0.011917936
0.032030974 -0.0025800993 0.1546119 0.087505296 0.20500816 0.09685168 0.14474763 0.24741735
0.03342325 -0.091946155 -0.16471656 -0.013473798 -0.05836549 0.051046096 -0.0938687 0.18176097
0.07643346 0.08317263 0.19617625 0.033628646 0.022202132 0.067541525 0.07853629 -0.1210399
-0.07626671 -0.2005876 -0.0806682 0.16434938 0.023833394 -0.039333902 -0.09434656 0.14517002
0.14736496 0.19185613 -0.15602548 0.097047076 -0.15868126 0.10975 0.056270804 0.003733058
-0.49581218 0.186111 0.09571823 -0.17459056 -0.01687051 -0.007609187 -0.029532436 0.04228438
-0.22233446 0.03447742 -0.03604679 -0.007701913 0.020400584 0.057239383 -0.02094614 0.06296955
-0.50630826 0.118470006 -0.064235 0.0032663075 0.1516362 0.34238395 -0.065292604 0.072647415
-0.357878 0.101034135 -0.11509002 0.020740768 -0.04377005 0.05919487 0.04232361 -0.03347874
0.12862392 0.0029613988 0.12757994 0.18285112 0.21105742 -0.3621906 0.008104306 0.010499331
-0.070946686 -0.047211863 0.011129884 -0.22727871 0.10926268 -0.01672928 0.091642395 -0.18401188
-0.07378486 -0.1359 -0.082660094 -0.11319402 0.14318448 -0.071595766 -0.03256561 0.14091034
0.10446382 0.13994533 -0.14582367 0.024962919 0.103693195 0.18853891 -0.09277171 0.14911796
-0.30896747 0.12783578 -0.051147487 -0.124887876 -0.12653638 0.09030017 -0.07916916 0.009487475
0.084553875 -0.1819503 0.109605975 -0.053310096 0.11189789 -0.020444686 -0.12557489 0.014253198
0.16867073 0.076346606 -0.20543641 0.054836657 0.06302533 0.149359 -0.065270804 -0.13756712
-0.11790716 0.07090084 -0.10326939 0.04948755 -0.09194938 -0.06879996 -0.06872721 0.06129884
-0.09650981 0.01104716 0.17287269 0.08465209 -0.09349959 -0.14618649 -0.075621985 -0.05752185
-0.06791369 -0.06485677 -0.05199833 0.10606683 0.060834084 -0.008073802 -0.099255465 -0.044634864

bn_outlayer_in.weight f4 [64]
00000000: 60c8 703f 48c5 6e3f c3f8 7a3f d93d 773f
00000010: 3dbd 773f 2a1b 743f ac73 793f 41e1 723f
00000020: d7b8 743f 35fb 7e3f 2634 713f 3a12 6f3f
00000030: ff20 703f 5cf3 743f 420a 7a3f f11f 723f
00000040: d1f4 7f3f 607c 7f3f c8a6 803f a144 7d3f
00000050: 8aec 763f a260 753f 8706 723f 012a 713f
00000060: 346b 773f 5660 7f3f 02d4 713f 718b 703f
00000070: f82f 713f ffba 7a3f 4a7f 6e3f f4fa 773f
00000080: 0de3 793f 2ad2 733f 5fac 773f 3966 723f
00000090: 62ed 743f 0b70 7f3f d8d4 733f ff93 7b3f
000000a0: 5ebe 853f dc01 813f f676 7f3f d962 7d3f
000000b0: 4f71 863f 62b7 703f f9c2 783f 6652 843f
000000c0: 8d84 733f b249 6d3f 186b 783f 3e07 7a3f
000000d0: 0e51 783f 6dfd 763f 4274 803f 4e5b 773f
000000e0: 81cf 843f 6c17 823f 898c 7e3f 3e3a 6e3f
000000f0: aa3c 733f 1d0e 753f 8952 753f 7569 723f
0.9405575 0.9326978 0.9803583 0.9657875 0.9677313 0.9535395 0.97442126 0.9487496
0.95594543 0.9960206 0.942202 0.93387187 0.9380035 0.95683837 0.976719 0.9457999
0.99982935 0.99799156 1.0050898 0.98932844 0.9645468 0.95850575 0.9454121 0.9420472
0.96647954 0.9975637 0.94464123 0.9396277 0.9421382 0.97941583 0.9316298 0.968673
0.97612077 0.9524256 0.9674739 0.9468723 0.9567472 0.9978034 0.9524665 0.982727
1.044872 1.0078692 0.99790895 0.98978955 1.0503329 0.9402982 0.97172505 1.0337646
0.9512413 0.92690575 0.9703841 0.976673 0.9699868 0.9648045 1.0035479 0.96623695
1.0375825 1.0163398 0.9943319 0.9305762 0.9501444 0.9572466 0.95829064 0.94692165

bn_outlayer_in.bias f4 [64]
00000000: 1c9b bf3a 0095 b6bb 77f7 3e3d e65d a2bc
00000010: 56e1 8ebd 43bd 81bd ab67 cb3d 8837 9dbd
00000020: 317f 1a3d 855d b7bd ade2 6c3c 86db 353d
00000030: 60e2 003d 288f 25bd 468c 7b3d 693e 2bbd
00000040: 919b 33be fdd7 1e3c 8f90 04be 6f81 cc3d
00000050: e878 e43c e6b9 63bd 05f9 56bd 90b7 cabb
00000060: e9ca 38ba f358 1bbe 2c5d 0abe 75b4 7b3c
00000070: 84bc 80bd f479 9b3d 0140 91bd 2e6c 5d3d
00000080: b9df 873c 2724 fc3b c826 2ebd ae9a 0dbd
00000090: 4d18 48bc 0938 20be 83f2 6d3c 6fba 213e
000000a0: c3ad 283d d936 f13d 8180 b73d 81c0 cebd
000000b0: adb6 003e 1790 063d 600e 233d b3b2 dabd
000000c0: 3935 3d3d b326 8abd d993 0ebe 81ec aa3d
000000d0: fdd4 6fbd 5674 bf3c e7e4 3b3d e727 843c
000000e0: 90ad 003d b3b7 d5bd be91 7f3c 5f1d d3bd
000000f0: 4549 873b f75a 89bd 9fad 9ebd 3419 0d3d
0.001461837 -0.0055719614 0.04662272 -0.019820165 -0.06976573 -0.06334927 0.099318825 -0.07676607
0.037718955 -0.08953384 0.014458341 0.044398807 0.031465888 -0.040419728 0.061413072 -0.041807566
-0.17539813 0.00969505 -0.1294577 0.09985625 0.027889684 -0.05559721 -0.052483577 -0.006186433
-0.0007049279 -0.1517065 -0.13512105 0.0153628485 -0.062859565 0.0759162 -0.07092286 0.054058246
0.016586171 0.0076947394 -0.042517453 -0.034571342 -0.012212825 -0.15646376 0.014523151 0.15793775
0.041181337 0.117780395 0.08960057 -0.10095311 0.12569685 0.03285226 0.03980863 -0.106786154
0.046193335 -0.067456625 -0.13923587 0.08345891 -0.05855273 0.023370903 0.045872595 0.016132308
0.031415522 -0.104354285 0.0155987125 -0.103083365 0.0041286075 -0.06706803 -0.07747959 0.034447864

bn_outlayer_in.running_mean f4 [64]
00000000: 7086 4fbd e00e 94bc 42b3 41bd dd9b f4b9
00000010: 217e 413c 72d7 0bbc bd8a 3bbd 5c33 b33b
00000020: 4e61 78bb bfd3 f73b 4869 50bc 9cfb 27bd
00000030: cdb6 f4bb 4679 0d3c 0bad 4cbd 0f93 793b
00000040: 3d3f 183a f46c b43a ccc0 873b 3fde 2abc
00000050: 6576 6cbb 4972 943b fa71 2fbb fede 9abc
00000060: 827b 45bc 4200 423b 3558 1f3a 1e48 17bd
00000070: f47c d039 3311 15bd 8fc7 c5bb 630f d8bc
00000080: e520 2dbb 0251 85ba 7d73 be3a f4c1 f73a
00000090: 826f bbbb bafa 3f3c 846c 2fbd 94b1 82bd
000000a0: dbba 19bc 12f3 a83b ef69 0dbd d73f 4a3c
000000b0: b0d1 34bc c4bb 3bbd b7f7 32bd 27c9 c43a
000000c0: 77fa cabb a067 a83a 535f 9d3b aecf 87bb
000000d0: 1d9f 223c 27f4 32bb c6f4 1cbd d54e 1cbd
000000e0: 987e 2dbd 68bc 18ba 6f56 13bd e6d0 19bc
000000f0: c340 afbc 2784 973b e1d6 e4bc 1e51 a2bb
-0.05066532 -0.0180735 -0.047290094 -0.00046655434 0.011809857 -0.008535253 -0.045786608 0.005468769
-0.0037899795 0.007563084 -0.0127204135 -0.041011438 -0.0074680806 0.008634871 -0.049969714 0.0038082039
0.0005807763 0.0013765381 0.004142856 -0.010428964 -0.003608131 0.0045302254 -0.0026770816 -0.01890516
-0.012053372 0.0029602204 0.00060785125 -0.03693401 0.0003976595 -0.036393356 -0.006035752 -0.026374524
-0.0026417312 -0.0010171237 0.0014530268 0.0018902407 -0.00572008 0.011717493 -0.042828098 -0.063815266
-0.009382929 0.0051559294 -0.034524854 0.012344322 -0.0110363215 -0.045833364 -0.04369327 0.0015013561
-0.0061944085 0.0012848265 0.0048026233 -0.0041446304 0.009925631 -0.002730617 -0.03831937 -0.038161118
-0.042357057 -0.00058264146 -0.0359711 -0.009388184 -0.021393185 0.004623908 -0.027934493 -0.0049535176

bn_outlayer_in.running_var f4 [64]
00000000: 7bf8 323c d0e7 fa3b e887 913b 0b00 f139
00000010: d8ba 0c3a 116e b139 7562 fd3b bff5 bf3a
00000020: 4364 8e3a 168a b339 32a5 4a3b a8d5 8a3b
00000030: a66b 263b 9922 3a3a 47da c83b 8563 bc39
00000040: 0a97 ca3a 8283 9f3a c97d 453b 1aef ab39
00000050: d9f7 1d38 6544 823b 7b40 f038 f022 f63a
00000060: 8880 573a 247a 6038 3dce 6b3a be4d 633b
00000070: b4f5 1e3b b52b 853b c5e9 383b 8630 cc3b
00000080: ac3e cd3a 6617 d33b 85b6 c837 68a8 043b
00000090: d450 4e3a d33b 8539 201e b03b 5329 4a3c
000000a0: 513d 3039 dd29 903a 012b 573b f143 c03a
000000b0: 273e d039 821b 203c a515 8c3b b2be 0a38
000000c0: 4c17 3d3b b4e9 8d3a 9244 2939 598a 983b
000000d0: 3c87 3039 97b3 9e3b 32f7 8a3b aab9 653b
000000e0: e252 4e3b 6475 cb3a 9ea1 403b 0989 d53a
000000f0: b8de b43b d642 e33a 5cec 233c bbbd a03b
0.0109235 0.0076570287 0.00444125 0.00045967134 0.0005368418 0.00033842077 0.0077326843 0.0014645382
0.001086362 0.00034244423 0.0030921218 0.0042368956 0.0025393753 0.00071004924 0.0061295363 0.00035932302
0.001545639 0.001216993 0.0030134788 0.00032793806 3.7662543e-05 0.0039754384 0.00011456102 0.0018778723
0.0008220752 5.3519514e-05 0.00089952705 0.003468379 0.0024255337 0.004064048 0.002821551 0.0062313704
0.0015658936 0.0064419983 2.392685e-05 0.002024198 0.00078703207 0.0002541231 0.005374685 0.012338954
0.0001680751 0.0010998804 0.0032832029 0.0014668686 0.0003971916 0.009772183 0.004275041 3.3079363e-05
0.0028852997 0.0010827095 0.0001614264 0.004655164 0.00016835047 0.004843186 0.0042408938 0.0035053291
0.0031482507 0.0015522656 0.0029393206 0.001629145 0.005519714 0.0017338644 0.010005083 0.00490543

gnn_layers.0.gnn.att_i f4 [1, 1, 64]
00000000: 13b1 2bbf 67d7 abbe fa94 aabe 269c d1be
00000010: def7 183f f143 00be bbf8 323e 9931 10be
00000020: 505d c8be 37c2 d8be da1b 363d d7a3 483e
00000030: e2af 7cbc 3b2b c13e 619e 013f a087 e9bd
00000040: a03b 1dbe 4b4f 9fbd 86cb 3abf 53d4 1f3f
00000050: a9ff 9b3e a012 19be 67b4 79bb f72e cbbe
00000060: ab4e 963d dce9 bebd 685d 0c3f 7c25 893e
00000070: deda 8d3d 1bbe d7be ee7c c0be d7fc 243f
00000080: b486 2f3e 7951 4b3e f030 b93d 8701 7ebe
00000090: 453f dbbe b191 be3e 0a3c 253c 83a7 993e
000000a0: a495 0ebe 892b 59bd 98b5 61bd 181f 8abe
000000b0: 9ed2 873e 062b 983e 6505 183d c988 c13e
000000c0: 181c 713e 149c a43e 623b ea3e 2adb 05be
000000d0: 2a58 353e 8e4d d73d 9368 23bd 4708 0b3d
000000e0: cdf2 af3e 576d c2be 1159 283e f057 b1be
000000f0: 0318 c3be c026 dd3e 1f0c aa3e 5fbd 23be
-0.6706707 -0.33562776 -0.33316785 -0.40939444 0.59753215 -0.12525918 0.17477696 -0.1408142
-0.39133692 -0.42335674 0.044460155 0.1959375 -0.015422793 0.37728295 0.5063229 -0.114028215
-0.15354776 -0.07778796 -0.729668 0.62433356 0.3046849 -0.14948511 -0.0038101913 -0.3968427
0.073392235 -0.09321949 0.54830027 0.2678641 0.06926511 -0.42137226 -0.37595314 0.64448303
0.17141229 0.19855298 0.09042537 -0.2480527 -0.42821708 0.3722053 0.010085115 0.30010614
-0.13924271 -0.053020034 -0.055104822 -0.26976848 0.26527876 0.29720324 0.03711452 0.3779967
0.23545873 0.32150328 0.4574843 -0.13071886 0.17709413 0.10512839 -0.03989465 0.03394344
0.3436493 -0.37974045 0.16440226 -0.34637403 -0.38104257 0.43193626 0.33212373 -0.15990208

gnn_layers.0.gnn.att_j f4 [1, 1, 64]
00000000: 5e13 723e ac9e b8bd bef5 4abe 1a81 4ebe
00000010: 0ada 0e3d af9c 94be f9b7 883d 8e33 613e
00000020: 7252 cbbd 7da7 c3bd 1752 003e 18c2 4a3e
00000030: 0d13 0bbe 769b 1ebe c6cb 14be c941 723e
00000040: 2745 80be cf9a 80be f22c 65be 1e37 17be
00000050: 04fe 953e 53ee 05be 193a 7bbe 4cd4 efbd
00000060: 9ccd 4d3e 1c02 303e 9f9b 123d a975 b0bc
00000070: 07f7 243e 50aa 89bd f270 2fbe f2da 3b3e
00000080: ec2a b83d c841 88be 9b58 183d 7fb2 153e
00000090: b82e 66be c609 883d 1ed1 103e af10 9a3e
000000a0: fa69 34bd 4600 6a3d 1af8 8cbd 432f b3be
000000b0: de14 c7bd a460 a43d 98df 523e d015 f9bd
000000c0: d881 b83d c011 80bd b0e3 1e3e 0b06 803c
000000d0: cca2 23be 4ee6 493e 08f8 0e3e 5357 6f3e
000000e0: 06d4 bf3e 7e28 9fbe bc64 6fbd dd7b 2e3d
000000f0: 1b4d a9be 9c84 463e 6d28 6fbe 6019 3d3c
0.236402 -0.09014639 -0.19820306 -0.20166436 0.034875907 -0.2902579 0.06675715 0.21992323
-0.099278346 -0.0955343 0.12531315 0.19800603 -0.13581486 -0.15488991 -0.14530858 0.23657908
-0.2505276 -0.2511811 -0.22380427 -0.1476712 0.2929536 -0.13079195 -0.24533881 -0.11710414
0.20097965 0.17188305 0.035792943 -0.02154048 0.16109858 -0.06721938 -0.17132929 0.1834524
0.08992562 -0.26612687 0.037193876 0.14618872 -0.2247876 0.06642489 0.14142272 0.30090854
-0.04404638 0.057129167 -0.06883259 -0.34996995 -0.09720777 0.08026245 0.20593107 -0.121623635
0.09009141 -0.062533855 0.15516543 0.015627882 -0.15980071 0.1971676 0.13961804 0.23373155
0.3746645 -0.3108558 -0.058445677 0.042598594 -0.3306664 0.19386524 -0.23355265 0.011541694

gnn_layers.0.gnn.att_em_i f4 [1, 1, 64]
00000000: 023c 2abe 65e9 d6bd 5e23 6fbe ffbe 1b3e
00000010: 23fe 403e 9814 edbd dedb 22be 7175 523e
00000020: 1bf6 983e 7bd0 debd 7e9b f0bc a3d7 04be
00000030: d974 8bbe df10 703c 3f1b b6be 41a8 d13d
00000040: 25e9 c9be 8c8a 893e 7eb8 c8be caee 37be
00000050: 0fbe 46be 6f29 1a3e 02f5 cb3c c511 a5be
00000060: ba3b f7be cf00 aebd 1bb2 133e 9ca4 73be
00000070: 9f7a 5a3d 0d29 d33d ccc1 0abe e5cc 04be
00000080: b303 96be 5dce cdbd d3ec 97bd f55e 453d
00000090: 1266 713e 61df 533e 6c29 4bbe 6a82 3dbe
000000a0: 92e9 c9be 8b2c 093e fc78 53be 59e4 163e
000000b0: fae4 0dbe 332d d9bd 9925 63be 4384 4dbe
000000c0: 98a0 6b3d 976c 953d e351 4a3e 29b4 90be
000000d0: d109 223e e80a c4be 5c13 d3bd b156 b4be
000000e0: 8ba9 bcbe 7049 95be d377 a0be c39c 59be
000000f0: 57cb 333e c6b2 49be ccad aebe 03d1 743e
-0.16624454 -0.10493735 -0.23353335 0.15209578 0.18846945 -0.115761936 -0.15904185 0.20552613
0.29875264 -0.10879608 -0.02937102 -0.12972884 -0.27237585 0.01465246 -0.35567662 0.1023717
-0.39435688 0.26863515 -0.39203256 -0.17962185 -0.19408439 0.15054868 0.024897102 -0.3224012
-0.48287755 -0.08496248 0.1442341 -0.23793262 0.053339597 0.10310564 -0.1355049 -0.12968786
-0.29299697 -0.10049126 -0.074182175 0.04818626 0.23574093 0.20690681 -0.1984002 -0.1850678
-0.39436013 0.13395898 -0.2065162 0.14735545 -0.13856879 -0.10604324 -0.22182311 -0.20069985
0.0575262 0.072961025 0.197578 -0.2826245 0.15824057 -0.3828957 -0.10306427 -0.3522239
-0.368481 -0.2915759 -0.3134142 -0.21251206 0.17558037 -0.19697103 -0.34116971 0.23907857

gnn_layers.0.gnn.att_em_j f4 [1, 1, 64]
00000000: 4aff b6be dc7e 493e bf62 b6be b206 3abe
00000010: 27ba ad3e 5b56 363e aa99 83be e295 4f3d
00000020: 56d1 dfbe 4c6b a13e 1948 53be d76f b6be
00000030: 925c b7be 69d6 943e 0504 c2be 2578 4a3d
00000040: 677b 4e3e e1aa eb3e 37dc 213f 30c7 f9be
00000050: 9404 9ebe 0f47 d03c 2f14 b03c edd2 58be
00000060: ba13 9bbe bbe8 c83e b0d5 afbe 9353 8dbe
00000070: cac3 91bd 7166 95be ac60 743e 37a1 b7be
00000080: a1f2 edbe c8f6 01bf 202b 8b3e 2e33 083e
00000090: 217c 19bf 2256 893e c4f0 acbe aa8e d1be
000000a0: 8d7a a1be c96d 043f 078e cabe d4eb 48bd
000000b0: db8f 10bf e544 fcbe 303e 98be 44e8 963e
000000c0: 3b52 b4be 38cb 2e3e 4cbd ee3d 5f55 22bd
000000d0: 338b b93e 4824 d1be 658c cfbe 187d 88be
000000e0: afb5 8abe 433b cd3e 15ad 89be 070d 0ebe
000000f0: 0a18 c63e 09d4 d63d 380e 9bbe 98a1 3c3e
-0.35741645 0.196773 -0.35622212 -0.18166617 0.33931085 0.1780638 -0.25703174 0.05068005
-0.43714398 0.31527174 -0.20632972 -0.35632202 -0.35812813 0.29069832 -0.37893692 0.049430985
0.20164262 0.46028808 0.63226646 -0.4878478 -0.30862868 0.025424508 0.021494 -0.21174212
-0.30288488 0.3924006 -0.34342718 -0.27602825 -0.07117422 -0.2917972 0.23865002 -0.35865185
-0.46474174 -0.50767183 0.2718134 0.13300774 -0.5995503 0.26823527 -0.3377744 -0.40929157
-0.3153881 0.5173002 -0.39561483 -0.04905303 -0.56469506 -0.49271312 -0.29734945 0.2947408
-0.35218987 0.1706971 0.11657199 -0.039632197 0.36239013 -0.40847993 -0.405368 -0.2665794
-0.2709174 0.40084276 -0.26889864 -0.13872157 0.38690215 0.10489661 -0.30284286 0.18421018

gnn_layers.0.gnn.bias f4 [64]
00000000: dc23 a8bc a599 4bbc 9854 7dbc 3d86 d7bb
00000010: 8085 4b3c fdc0 77bc 66eb abbc 7c8f 393c
00000020: 0752 53bc cfde 9839 e203 e6bc 7edc 6cbc
00000030: dc7c 8fbc 1a2c 963b fccf 28bc c1ed fc3b
00000040: af1f 06ba 0c4d 0e3a a676 ef39 4310 9e3a
00000050: 440d 903b c4c6 8f39 e238 8b3b 7226 bbbc
00000060: 2fe2 31bc f300 053c 7799 dd3c 71c9 a6bb
00000070: 76c0 853b 13c1 d2bb 20fc 383c b7a2 d9b9
00000080: 8eff 84bb 3436 a8bc 9397 5b3c d4c8 aebb
00000090: 6928 d33b 246b 873a b8b1 66bc 5806 73bb
000000a0: c77f 393b 9c62 823c bb67 57bb 990a f43b
000000b0: 3804 c4ba 745e 05bc 86c7 b3bb c97e 003b
000000c0: 8e7b d6bc 0338 313c 7f09 983c 596e 6cbc
000000d0: ad1a 663c d95c 8fbb 6bd6 86ba fc55 41bc
000000e0: 0bf1 8abc 028c c23a 86c3 92bc 8268 dabc
000000f0: e93c cc3b caf1 ca3b 09c8 ecbb beb1 84bc
-0.020524912 -0.012426768 -0.015462063 -0.0065772817 0.012421966 -0.015121696 -0.02098627 0.011325713
-0.012897975 0.00029157705 -0.028078023 -0.014456866 -0.017515592 0.004582894 -0.010303494 0.007718772
-0.00051164156 0.0005428351 0.00045674032 0.001205929 0.0043961126 0.00027423177 0.0042487243 -0.02284548
-0.010857149 0.008117902 0.027050717 -0.0050899317 0.004081781 -0.0064317076 0.01129058 -0.00041510697
-0.004058785 -0.020533659 0.013402837 -0.005333999 0.0064440263 0.0010331613 -0.014080457 -0.0037082639
0.002830492 0.015916161 -0.0032868225 0.0074475524 -0.001495487 -0.008140195 -0.0054864315 0.001960682
-0.026181962 0.010816577 0.018559216 -0.014430606 0.014044446 -0.004375082 -0.001028729 -0.011800285
-0.016960641 0.0014842751 -0.017915498 -0.026661161 0.006232847 0.0061933743 -0.0072259945 -0.016198035

gnn_layers.0.gnn.lin.weight f4 [64, 5]
00000000: 1c16 5d3c b0ff 64be a3f2 c73c e8fb 68be
00000010: ae84 813e c015 5f3e 621e ed3d d7d6 943e
00000020: 7aa5 4f3d 04e4 c83e 8bed 07be 7570 77be
00000030: 3cd2 ebbd a992 753e 7799 923d 85b8 3d3e
00000040: c73f 72be 7c56 893e 6915 c13d f076 853e
00000050: 7f4e a73e bde3 243d e4f3 1dbe 3877 063d
00000060: f195 c0be 3c70 bf3d 6f00 9e3e e800 c9bd
00000070: e7e9 e23d f590 c83d de9c fa3d dd0f e0bd
00000080: 88a5 67bc 3f34 91bc 5d33 4abc 6e90 96be
00000090: d0e5 8bbe e94b 733d d65d 6b3e 3491 06be
000000a0: 6840 1e3e ba8e 29bd 2e2b 7e3d 8105 aebd
000000b0: 205f f13e 3981 3ebe 1d5d 2ebe f957 03be
000000c0: 7318 5fbe 9113 b23e 46b5 383e be4e 48bd
000000d0: 056b b8bd 06cd 083e 202b a1bd 9247 623d
000000e0: 66cf 81bd e63c 263e 276a 7bbe 5ab6 913c
000000f0: 85fb 2b3e 3f11 223e efb6 8e3e b8e1 c5bd
00000100: 47f6 5b3e f963 47be 96ba c73d 1b28 3d3e
00000110: 5846 3fbe 7b9b 79be 132f 47be 828a 243e
00000120: cb10 ecbd 3db9 853e 956e afbe 89c9 afbd
00000130: c4df 77bd 46c3 89be 2ef7 d4bd 37bd 8fbe
00000140: 47cb f73d cb71 4cbe 248d ddbd 4398 b4bd
00000150: b828 953d 0698 1fbe 391f cf3d eabc ab3e
00000160: 98c8 463e a882 c53d a8a1 edbc e5d9 40bc
00000170: 6be6 803c 671f 493e 7c57 233f 1349 933d
00000180: 5140 16be 9b4e 993e a343 233d cbf0 c6be
00000190: 58ee 82be d140 5abd d8b9 1abe 9767 40be
000001a0: eca3 bdbd b723 88be 14a1 79be 0d79 0cbe
000001b0: bfc4 10be 05a6 683e 1f31 993e 0bac 8d3e
000001c0: 0096 76be 9ad9 a63d 1386 d0bd 59da 39be
000001d0: 01b6 abbd 5b27 9fbd fc0a 113e 1724 a53d
000001e0: 7070 a23d a5f7 4cbd 5e78 5d3e 16dc 803e
000001f0: adfb 6ebe 06e3 78be 78f0 923d 5cea 813d
00000200: e296 1ebe 2ccf 37bd b767 923b e09d 033e
00000210: 14a4 ea3d a84f 2abd 524c 7fbe f481 39bb
00000220: 32d2 2ebe 959a 0a3e 3611 87be 317f 43be
00000230: de9d 66be 613f 8cbe f85f 8fbe 83c7 133e
00000240: 4f66 b5be 5d42 f3bd efcd 3cbe 9c21 eebd
00000250: d360 bc3d b3c5 793e 748a ba3d 74a1 963e
00000260: 693c b23d 5beb 32be d459 c13e b6e6 023e
00000270: 1b93 223e 928d 0dbe 7383 aa3d 207c 3abe
00000280: 96ba 353e 8cc3 043e 3297 fcbd c2d1 3b3e
00000290: 2d20 453d b1c8 d03c a5f8 3c3e 1699 ac3e
000002a0: 8b17 6fbd 27fb ddbd 5b06 783e 61e9 883c
000002b0: 9fef a0bd db2b 1dbe 83a3 52be 26d5 a3bd
000002c0: 0039 36bc b27b 533e 5a4f 6abe 2b99 953d
000002d0: 3d46 523e b183 61be 8ebf c0bc c48f 8a3e
000002e0: 99f3 673e 7487 463b d850 99be 9b30 38bd
000002f0: ce45 b0be 275f e5be a1ec 6abd aaa5 9fbe
00000300: 68da 093c 7b0d 573d 50a0 133d 7cd7 81bd
00000310: 5c6c 1abe 3850 a8bd e32b 113e fa0d 91be
00000320: a5f5 84be 2df2 5bbe 795c 913d 0b76 54be
00000330: 34af f33d a69f b83d dd3b 63bd dd84 a6bd
00000340: 1e78 f5bd d776 8e3e 54a2 40bd a272 5fbd
00000350: bc07 0fbe 9623 773e a4e6 08be 1a4c b9bb
00000360: 01a2 6d3b cae4 8ebd d195 5b3e 05a6 873e
00000370: 203c 11be 995e 85be 844a 86bd 8edf 92be
00000380: 7de7 123d fa7c 103d 23ce d7bc 2f8b a2be
00000390: 1e7e 06bc 017b 4bbe 631d 9dbe 9ddb f1bd
000003a0: 873d 0abe 7724 263e b5f5 29be d935 ff3d
000003b0: 2b97 8fbd ce32 34be 88cb 5cbe 8d14 74be
000003c0: e1e5 f23d 4115 64bd a2ad 013e c0fc 66bb
000003d0: 715f 60bd 9dc2 113d 8f4d 11bd f055 ed3d
000003e0: 0037 083e 2132 33be 91ad 303e 2fa1 85be
000003f0: 72b3 0d3e 5b17 81be aff0 80bd 2ce6 363e
0.013494041 -0.22363162 0.02440769 -0.22752345 0.2529654 0.2178564 0.11578061 0.2907016
0.05069492 0.39236462 -0.13274209 -0.24163993 -0.115147084 0.23981728 0.07158177 0.1852742
-0.23657142 0.26823795 0.09427912 0.26067305 0.32677075 0.04025625 -0.15425068 0.03282854
-0.37614396 0.09347579 0.30859706 -0.09814626 0.110797696 0.09793273 0.12236951 -0.10940526
-0.014138587 -0.017725108 -0.0123413475 -0.29407066 -0.2732377 0.059398565 0.22985014 -0.13141328
0.15454257 -0.04139588 0.062052898 -0.084971435 0.47142887 -0.18603982 -0.17027707 -0.12826528
-0.2178667 0.34780553 0.180379 -0.04890322 -0.09004787 0.1335946 -0.078695536 0.055244036
-0.06338386 0.16234168 -0.24552213 0.017787147 0.16795166 0.15826891 0.27873942 -0.09662193
0.21480666 -0.1947173 0.09752385 0.1847233 -0.18679178 -0.24375717 -0.19451551 0.16068462
-0.115266405 0.26117888 -0.34264055 -0.08583362 -0.060516134 -0.26906794 -0.10398708 -0.28074047
0.12099319 -0.19965284 -0.10817936 -0.08818104 0.07283157 -0.15585336 0.10113377 0.33542567
0.19412458 0.09644061 -0.029007748 -0.0117707 0.015734872 0.19640885 0.63805366 0.07191672
-0.14672972 0.29942784 0.039859425 -0.38855585 -0.25572467 -0.05328447 -0.15109956 -0.18789516
-0.09259781 -0.26589748 -0.24377853 -0.13718052 -0.14137553 0.22719581 0.2992029 0.2767032
-0.24080658 0.08146973 -0.10181823 -0.181497 -0.08384324 -0.07771178 0.14164346 0.08063524
0.07931602 -0.05004086 0.21627948 0.25167912 -0.23338194 -0.24305353 0.07174772 0.06343529
-0.15487245 -0.04487531 0.00446793 0.12853193 0.11457077 -0.041579872 -0.24931458 -0.0028306218
-0.1707237 0.13535531 -0.26380318 -0.19091488 -0.22521159 -0.27392104 -0.28002906 0.14431576
-0.35429618 -0.11877892 -0.18437932 -0.11627504 0.09198155 0.24391823 0.09108439 0.29420054
0.087029286 -0.17472593 0.37763846 0.12783322 0.15876429 -0.13823536 0.08325853 -0.18211412
0.17746958 0.1296522 -0.12333526 0.18341735 0.04812639 0.025486322 0.18454225 0.33710545
-0.05837206 -0.10838919 0.24221174 0.016712846 -0.07858204 -0.15348761 -0.20570187 -0.07999639
-0.011121988 0.20652655 -0.22881833 0.07304605 0.20534606 -0.22022893 -0.02352884 0.2706281
0.22651519 0.0030293139 -0.2994449 -0.04496823 -0.34428257 -0.44799158 -0.057354573 -0.3118108
0.0084138885 0.05250309 0.036041558 -0.063399285 -0.15080398 -0.082184255 0.14176898 -0.28330976
-0.25968662 -0.21479101 0.07097716 -0.20748155 0.11898652 0.090148255 -0.055477012 -0.081308104
-0.11985801 0.27825043 -0.04702981 -0.05455268 -0.13967794 0.24134669 -0.13369232 -0.005654824
0.0036259892 -0.06977232 0.21443869 0.2649385 -0.14183092 -0.26048735 -0.065571815 -0.28686184
0.035865296 0.035275437 -0.02634341 -0.31746814 -0.00820878 -0.19871141 -0.30686483 -0.11809466
-0.13500033 0.16224848 -0.16597636 0.124614425 -0.07011255 -0.17597505 -0.21562016 -0.23835965
0.11860252 -0.05568433 0.12663892 -0.0035245866 -0.05477852 0.03558599 -0.035474356 0.11588657
0.13302231 -0.17499591 0.1725371 -0.26099536 0.13837984 -0.2521313 -0.06295907 0.17861241

gnn_layers.0.bn.weight f4 [64]
00000000: b57c 6b3f 9f2b 453f a3b7 763f 2dc2 583e
00000010: 2c38 233f e5cc b73e 2275 553f 7e90 523f
00000020: 8c07 733e 269b 143f 9797 273f e02b 743f
00000030: b72f fa3e 9504 223f 56bd 383f 1f53 0d3f
00000040: ba63 293f b46a 6a3e bfd5 703f a1f8 c33e
00000050: b9fb a43e 0123 7b3f c58c 6d3e d49b f73e
00000060: 68b8 343e 0a99 d43e a865 1d3f 43e4 773f
00000070: 5447 7b3f 36c7 7c3f f100 6c3f af59 7d3f
00000080: 796e 633e 235a 3a3f 54c9 993e 3e0c 733f
00000090: d295 9b3e 747e 163f d4ea 783f 76a1 703f
000000a0: 3db6 053f 3cb0 aa3e 4801 423f 73c4 513f
000000b0: 4a5c c83e 0cd5 7d3f cbc0 713f 0dc6 ee3e
000000c0: 9924 163f 7e8e 713f 08b3 d73e 6057 0d3f
000000d0: 3390 fb3e ee85 633f 8b87 6b3f c96b 4e3f
000000e0: b3d0 533f 1015 333f 85de 733f eec5 873e
000000f0: b46d 5a3f 6b82 523f 043b 713f c42a 3f3f
0.9198716 0.77019686 0.9637396 0.21167822 0.63757586 0.3589851 0.83381855 0.8225173
0.23733348 0.5804924 0.6546568 0.9537945 0.4886453 0.6328824 0.72163904 0.5520496
0.66167796 0.22892267 0.9407615 0.38275626 0.322233 0.98100287 0.2319823 0.48361075
0.1764847 0.4152301 0.6148324 0.96832675 0.98155713 0.9874147 0.92188936 0.9896497
0.2221011 0.7279379 0.30036414 0.94940555 0.3038774 0.587867 0.9723332 0.9399637
0.522312 0.3333758 0.75783205 0.8194038 0.3913291 0.9915321 0.94434804 0.46635476
0.58649594 0.9435805 0.42128778 0.5521145 0.49133453 0.88876235 0.920037 0.8063322
0.82740325 0.69954014 0.9526141 0.26518196 0.85323644 0.8223025 0.94230676 0.7467463

gnn_layers.0.bn.bias f4 [64]
00000000: 4a1b 583d 9b5d 893d ae42 ccbb f322 603e
00000010: 214f bbbd 1d0f 8a3e 1f07 893d bd2d 8cbd
00000020: df8f 493e 340f 53be 4919 d73d f7c4 f13c
00000030: 4107 0f3e f651 b6bd 4adf ad3d 582d bbbd
00000040: b599 f1bd 9e65 5f3e 5f33 923d 318f 36be
00000050: d27d 58be 9edf 0c3d 5aa1 2f3e f1aa 153e
00000060: 1e57 8c3e 2ada 5cbe 229f bdbd 628a a43c
00000070: 4c4f a9bc aae3 cd3c 0de2 3abd 0ff7 96bc
00000080: 2887 2f3e 9c57 c13d 56fc 2dbe d164 0e3d
00000090: aa4b 313e 7c01 39be 2c60 cd3c a0f7 25bd
000000a0: 47b9 96be 3ad8 9f3e e394 d4bd 1118 c83d
000000b0: fdda 65be 5f40 543c 493e fa3c 3adf 89be
000000c0: a94e e83d bc0a 01bd 37e2 12be 7d46 033e
000000d0: eff2 29be c184 593d 3764 73bd 98d0 e93d
000000e0: ef5e 8c3d e5d4 173e f21a 1f3d 1dbd 1a3e
000000f0: 5a43 523d bc68 8ebd 5659 123d 8333 cc3d
0.0527604 0.06707307 -0.006233535 0.21888332 -0.09145952 0.26964656 0.06690811 -0.068446614
0.19683789 -0.20611268 0.1050287 0.029512865 0.13967611 -0.089023516 0.08489855 -0.09139508
-0.117968954 0.21816108 0.071387045 -0.1782806 -0.21141747 0.034392945 0.17151394 0.1461599
0.27410215 -0.21567598 -0.09258868 0.020085517 -0.020667695 0.025132973 -0.045625735 -0.018428354
0.17141402 0.09440538 -0.1699079 0.034764115 0.1731402 -0.18066972 0.025070272 -0.040519357
-0.2943823 0.31219655 -0.103799604 0.09770215 -0.22446819 0.0129548 0.030547278 -0.2692812
0.11343128 -0.031504378 -0.14344107 0.12819858 -0.16596578 0.05310512 -0.059421744 0.11416739
0.06854045 0.14827307 0.038844056 0.15111203 0.051333763 -0.0695357 0.03572973 0.099707626

gnn_layers.0.bn.running_mean f4 [64]
00000000: 33a6 5ebd 1d2e 5b3e dc34 5abd a110 eb3d
00000010: 8e9b 6cbc 12b6 bf3d af91 e1bc 4fbf 9abd
00000020: 2d75 d93d aa40 99bd d9b0 f9bb 0608 f6bc
00000030: 8e2a 0b3e 8443 8cbd ce02 75bd cce0 25be
00000040: 0651 31bd d158 f93d 4305 303e 0da1 cebc
00000050: 6628 1cbe 99ad f3bd 3a67 913d c5d6 46bd
00000060: 7a5b 383d b49b 69bd 8819 863c 65c8 e0bd
00000070: 29b8 52be 3dbc c0bc f331 1e3e 4f2b 253c
00000080: 3d5a ac3d 6747 763d b913 cbbc 4aab 5ebc
00000090: ef51 d43d ec29 75be d324 93bd 42ba c5bd
000000a0: 4ffb cfbd a523 1f3d 5240 02bd fce0 bf3d
000000b0: 2eb0 1dbe ad84 f0bd 671f 00be b83a f6bd
000000c0: 9a60 ea3a d573 d53c e48d 19bd 2edd 663d
000000d0: c8ba eebc 1f1b f63d e487 45bc a38f 05be
000000e0: 889c d8bd 4d40 0e3e 6014 26bd 9632 393d
000000f0: e2e1 a03d 288f 2fba b9ab 43bd 6d40 963d
-0.05435772 0.2140431 -0.053273067 0.11477781 -0.014441384 0.09360899 -0.027535288 -0.075560205
0.10618053 -0.07483037 -0.007619959 -0.030033123 0.13590452 -0.06848815 -0.059817128 -0.16199034
-0.04329016 0.121751435 0.17189507 -0.02522328 -0.15249786 -0.118983455 0.07099767 -0.048544664
0.045009114 -0.057033256 0.016369596 -0.10975722 -0.20578064 -0.023527259 0.15448742 0.010081126
0.08415649 0.06012669 -0.024789678 -0.013590643 0.1036719 -0.23941773 -0.07184758 -0.096546665
-0.10155355 0.038852353 -0.031799622 0.09369084 -0.15399238 -0.11744056 -0.12511979 -0.120229185
0.0017881573 0.02605621 -0.037488833 0.056363277 -0.029141799 0.12016892 -0.012056325 -0.13043074
-0.10576731 0.13891716 -0.040546775 0.045214258 0.07855584 -0.0006697052 -0.04777119 0.07336507

gnn_layers.0.bn.running_var f4 [64]
00000000: c8e2 9a3a b286 573d 8231 c13a cdc2 773c
00000010: 04a4 4a3a c076 463c 40e5 4438 6182 fd3b
00000020: ab60 6e3c 51e0 bd3b 881c e239 0c2b 8439
00000030: 70c5 c53c 1a79 b33b 3d0e 253b a22a f23c
00000040: 20fe f63a b8df 763c ed7a f73c c4d9 403a
00000050: f656 cf3c 8503 6f3c 058e 953b 9f3a 323a
00000060: a988 533b 3c10 8f3b ec62 0439 3b68 383c
00000070: bf05 393d 9e36 a439 cc50 ac3c 725c fa38
00000080: aac9 023c fceb da3b da18 c83a f5e9 9638
00000090: fa0c 1f3c 8e33 733d c179 603b 9acf 103c
000000a0: 8203 373c 1821 193a 2eda 593a 73bc fa3b
000000b0: c9b1 c33c a818 493c 044a 703c 7e45 7b3c
000000c0: 00b0 513a 5dd9 7839 1d5a 543b 706f a83b
000000d0: f2ea fa3a e547 823c 04ba 0a39 8229 6d3c
000000e0: 2353 053c e9e4 9e3c 4be4 093a 0404 ae3b
000000f0: 2bff af3b 6b60 6538 fd68 dd3a 1eeb 063c
0.0011816854 0.05261869 0.0014739486 0.015122128 0.0007730129 0.012113273 4.6943547e-05 0.0077364896
0.014549415 0.005794563 0.00043127337 0.00025209074 0.024141997 0.005477083 0.0025185489 0.029561345
0.0018844046 0.015067987 0.030209983 0.00073566684 0.02531002 0.014588241 0.004564049 0.00067988964
0.00322775 0.004365949 0.00012625352 0.011255319 0.045171496 0.0003132121 0.02103462 0.00011938148
0.007982651 0.0066809636 0.0015266195 7.196135e-05 0.009707684 0.05937534 0.0034252258 0.008838559
0.01117027 0.0005841418 0.00083104044 0.0076518594 0.023888486 0.012273945 0.014666084 0.015336392
0.00079989433 0.00023732097 0.0032402345 0.0051402375 0.0019143505 0.015903423 0.00013230002 0.014475228
0.008137497 0.019396262 0.00052601536 0.0053105373 0.0053709946 5.468765e-05 0.0016892251 0.008234767

out_layer.mlp.0.weight f4 [1, 64]
00000000: a67f e43c d0d6 bf3b 5b32 173d bcff fe3c
00000010: 4cdb 83bc 71ae 2cbd 81e7 b53c 40ee 92bc
00000020: b73e a93c 7140 99bc 0a89 113d 38ae 0c3d
00000030: 5a1f eb3c 576b 51bc 7644 183d c66b 8bbc
00000040: 6a73 abbc d384 0b3d 8714 ccbc 332d 2e3d
00000050: 289a 613d 03ef 66bc e566 03bd 8031 4e3d
00000060: c57b 003d aea3 f9bc de8a dbbc 8594 2c3d
00000070: eb4e 6ebc 5f40 113d d83c 9abc 679f d53c
00000080: 1a5e 8b3c c226 163c e8dc b3bc 64e7 14bc
00000090: d370 983c b461 a5bc 0813 353d e3f7 e63c
000000a0: 5636 183d 2172 1a3d 35f8 223d 1e45 c6bc
000000b0: a4d3 2c3d bf81 033d 56c7 103d 5068 11bd
000000c0: 3311 af3c 5e37 00bd 3035 8ebc 8925 d33c
000000d0: c2d4 91bc c961 783c 6680 2b3d 0244 303d
000000e0: 09ab 173d c905 e2bc 1213 3d3d e1f3 e73c
000000f0: f30e 823c 16fc aebc 1f6c a1ba ecfe 583c
0.027892899 0.005854465 0.036913257 0.031127803 -0.01609578 -0.042158548 0.022205116 -0.017935872
0.020659788 -0.018707486 0.03553108 0.034345835 0.028701473 -0.0127819395 0.037174664 -0.017019164
-0.020929057 0.034062218 -0.024912132 0.042523574 0.055078655 -0.014095071 -0.03208055 0.050340176
0.031368036 -0.030473556 -0.026799615 0.042133827 -0.014545183 0.03546178 -0.01882784 0.026076986
0.017012645 0.009164514 -0.021955922 -0.009088371 0.018608486 -0.02018819 0.044207603 0.028194373
0.037161194 0.037706498 0.03978749 -0.02420288 0.042194024 0.032106157 0.03534635 -0.03549987
0.021370506 -0.031302802 -0.017359346 0.025774734 -0.017801646 0.015160033 0.041870497 0.043033607
0.037028346 -0.02759065 0.046160765 0.028314533 0.015876269 -0.021360438 -0.0012315548 0.013244372
