data/swat/best.pt (torch_old, 20954 bytes, 16 tensors)

embedding.weight f4 [50, 64]
0.062492575 0.4536554 0.39495912 -0.15495352 -0.2273565 -0.08490172 -0.18743372 0.22588107
-0.07830575 -0.01828246 0.0065034893 0.333695 -0.20385288 -0.20744164 -0.3918207 0.005904425
-0.042596027 -0.13082589 0.07090992 -0.05357288 0.009880985 -0.047006268 -0.0564588 0.112977915
-0.032289118 -0.031591844 1.0159779 -0.27064696 0.034280878 -0.34408578 -0.1629761 -0.017804982
0.14718582 -0.06254318 0.6902857 -0.2459829 -0.00013896544 0.03967948 1.1158837 -0.022540608
-0.09857141 0.17348939 0.03814461 -0.20845531 -0.0029443994 -0.02460544 -0.05332953 -0.055584293
-0.36511585 0.02437161 0.46257862 -0.13417834 -0.07226217 -0.000628285 0.031587243 0.028019862
-0.09109091 0.6387438 -0.018674262 -0.09567392 -0.0831455 -0.023600865 -0.3026172 0.10672651
0.2099385 0.10212639 -0.0094654 -0.06683151 0.14540948 -0.104913935 0.32484102 -0.114682674
1.0083069 0.19408761 -0.0029196097 -0.74125534 -0.33158463 -0.35454622 -0.35330907 0.16121034
-0.3094056 0.0832395 0.34436098 -0.046949465 0.13990535 -0.09639181 0.19128163 -0.21317513
0.124849275 0.18293998 -0.29533702 0.045165736 0.21727674 0.30870065 -0.28623217 -0.066740975
-0.39234355 -0.11173626 -0.11178464 0.052490387 0.17051698 0.26876387 -0.6730025 0.24637109
0.47836792 0.0036048829 -0.076872095 -0.38017336 0.18656161 0.20520493 -0.0863646 -0.40505227
0.12019342 0.03850054 0.16240016 0.021335682 -0.11175202 0.13369532 0.2276102 -0.25465593
-0.363565 -0.12306209 -0.0024892548 0.18051872 -0.012671001 0.1507967 -0.40762866 0.2348287
-0.14647171 0.13029397 -0.12529181 0.10600782 0.11132453 -0.13603261 -0.7417253 -0.9298965
-0.5272284 0.17456281 -0.2815252 0.31815147 -0.13968457 -0.16888854 -1.0687339 0.12900618
-0.18348941 -1.1582829 0.3337599 0.15021205 -0.5649338 -0.04542704 -1.1888026 0.19854002
0.109478064 0.122274496 -0.7143358 -1.2230371 -1.0873843 -0.9906278 -0.110207364 0.13278049
-0.53004414 0.13132703 -1.3674212 -1.0838075 0.14497982 0.22853659 -0.027065732 -0.49114913
0.2716808 0.17119588 0.14859523 -0.120181575 0.17149076 0.1195605 0.06952666 0.105944686
0.09550572 0.054106 -0.07411364 -0.7994002 -0.48131767 0.10573498 0.19846001 -0.5564026
-0.37415567 0.10667897 0.13265981 0.14108765 0.13999641 0.14596918 -0.29271644 0.21535274
-0.060397733 -0.1451418 0.11737169 0.06533304 -0.060715124 0.22432263 -0.058094896 -0.06277569
0.031278048 0.24522726 0.17386495 0.027973495 -0.077665806 0.13361892 0.014255618 -0.20704336
-0.048874497 0.14081551 0.12457275 -0.5514368 -0.11603256 0.20553125 0.14090405 -0.020103758
-0.24245663 0.17408343 -0.0666723 -0.10050514 -0.058537357 0.13573274 -0.06802277 0.019838272
-0.07968183 0.081501834 -0.10015804 -0.076644726 -0.13679866 0.102276355 -0.030584916 -0.054543123
-0.6976281 0.12990203 -0.46830806 -0.54173374 0.3138304 0.18918353 0.48016202 0.09228855
-0.20321257 0.26623353 -0.071425624 -0.059180576 0.2519308 -0.27372763 0.052369155 -0.074081615
-0.07120807 -0.5187055 0.07893611 -0.8063075 0.07153052 0.28827778 0.36472934 -0.175428
00000000: 37f8 7f3d 8545 e83e 1538 ca3e 23ac 1ebe
00000010: 24d0 68be f4e0 adbd a0ee 3fbe 5e4d 673e
00000020: c45e a0bd 19c5 95bc 391b d53b 12da aa3e
00000030: cfbe 50be 956b 54be b99c c8be e879 c13b
00000040: 2c79 2ebd 39f7 05be 3839 913d 3c6f 5bbd
00000050: dbe3 213c a589 40bd 5841 67bd f760 e73d
00000060: 9841 04bd 7366 01bd 900b 823f 3d92 8abe
00000070: 1b6a 0c3d 032c b0be 35e3 26be c1db 91bc
00000080: e1b7 163e a416 80bd 90b6 303f f1e2 7bbe
00000090: 40b7 11b9 f386 223d 47d5 8e3f 15a7 b8bc
000000a0: cfdf c9bd 34a7 313e 863d 1c3d 4f75 55be
000000b0: d3f6 40bb 5991 c9bc 1170 5abd 5bac 63bd
000000c0: 77f0 babe f8a6 c73c 1bd7 ec3e 0c66 09be
000000d0: 30fe 93bd 7eb3 24ba a061 013d e989 e53c
000000e0: df8d babd b784 233f c4fa 98bc b0f0 c3bd
000000f0: 3048 aabd 9a56 c1bc a4f0 9abe 6e93 da3d
00000100: 1efa 563e a427 d13d c414 1bbc f5de 88bd
00000110: 39e6 143e 1edd d6bd 9051 a63e c0de eabd
00000120: 3310 813f e7be 463e ec56 3fbb e9c2 3dbf
00000130: 76c5 a9be 1587 b5be ede4 b4be 5314 253e
00000140: 696a 9ebe 7979 aa3d 1550 b03e 154e 40bd
00000150: 5943 0f3e 1269 c5bd 55df 433e 954a 5abe
00000160: fab0 ff3d 9e54 3b3e 6a36 97be b5ff 383d
00000170: cb7d 5e3e 030e 9e3e 068d 92be 7eaf 88bd
00000180: 41e1 c8be fbd5 e4bd 58ef e4bd 2900 573d
00000190: 019c 2e3e 6b9b 893e e449 2cbf b448 7c3e
000001a0: a4ec f43e e63f 6c3b 1e6f 9dbd 15a6 c2be
000001b0: 020a 3f3e 3e21 523e ecdf b0bd 0363 cfbe
000001c0: f827 f63d beb2 1d3d 3a4c 263e 2bc8 ae3c
000001d0: 3ede e4bd 6de7 083e a612 693e 4362 82be
000001e0: 3125 babe fa07 fcbd c422 23bb e6d9 383e
000001f0: 089a 4fbc 736a 1a3e b4b4 d0be ef76 703e
00000200: aefc 15be c86b 053e 7f4c 00be a11a d93d
00000210: 1dfe e33d 224c 0bbe b6e1 3dbf b20d 6ebf
00000220: 71f8 06bf 98c0 323e 1224 90be c0e4 a23e
00000230: 7909 0fbe 1ef1 2cbe 46cc 88bf 321a 043e
00000240: a6e4 3bbe 9d42 94bf 94e2 aa3e 30d1 193e
00000250: 809f 10bf b411 3abd af2a 98bf 134e 4b3e
00000260: 0936 e03d 0d6b fa3d b6de 36bf 7b8c 9cbf
00000270: 692f 8bbf c999 7dbf 66b4 e1bd 9cf7 073e
00000280: f9b0 07bf 987a 063e a807 afbf 34ba 8abf
00000290: 9775 143e 7f05 6a3e f4b8 ddbc e677 fbbe
000002a0: bf19 8b3e f94d 2f3e 5929 183e c221 f6bd
000002b0: 469b 2f3e 23dc f43d fe63 8e3d 87f9 d83d
000002c0: 8198 c33d 419e 5d3d e4c8 97bd 7ea5 4cbf
000002d0: 456f f6be 958b d83d 1a39 4b3e 6770 0ebf
000002e0: 5591 bfbe 817a da3d f9d7 073e 4879 103e
000002f0: 385b 0f3e f278 153e eede 95be 6e85 5c3e
00000300: 9d63 77bd 0da0 14be 9260 f03d 54cd 853d
00000310: 6cb0 78bd d5b4 653e eaf4 6dbd 8a90 80bd
00000320: 691d 003d db1c 7b3e a709 323e ac28 e53c
00000330: 400f 9fbd 66d3 083e 6590 693c 2d03 54be
00000340: a030 48bd f131 103e ff1f ff3d f62a 0dbf
00000350: 7ba2 edbd c976 523e 2749 103e a3b0 a4bc
00000360: 8d46 78be ed42 323e 7d8b 88bd a4d5 cdbd
00000370: dec4 6fbd 86fd 0a3e 864f 8bbd df83 a23c
00000380: 3a30 a3bd 6fea a63d a91f cdbd e9f7 9cbd
00000390: f314 0cbe 4476 d13d 388d fabc 9c68 5fbd
000003a0: c197 32bf 0a05 053e 13c6 efbe 10af 0abf
000003b0: 61ae a03e 54b9 413e ccd7 f53e c801 bd3d
000003c0: f516 50be c34f 883e 9947 92bd 5567 72bd
000003d0: 13fd 803e 0726 8cbe 0a81 563d 1ab8 97bd
000003e0: 89d5 91bd e2c9 04bf 41a9 a13d 2b6a 4ebf
000003f0: 987e 923d 2599 933e cebd ba3e 66a3 33be

bn_outlayer_in.weight f4 [64]
0.8638764 0.6546842 0.73753905 0.82102287 1.0522195 0.8592188 0.8959756 0.88629204
0.8353753 0.8409076 0.79459083 0.601394 0.90680546 0.87851024 0.90588415 0.82536787
0.87746423 0.7971185 0.80610895 0.7113698 0.8606216 0.8139223 0.81353307 0.8374065
0.84623104 0.8103391 0.97210765 0.930233 0.88972104 0.7979362 0.89244086 0.83935755
0.88656664 0.7535234 1.0090263 0.9005624 0.82303053 0.80144846 0.95941675 0.8536109
0.6975456 0.462214 0.70940876 0.9024259 0.8083185 0.858919 0.81400645 0.74261224
0.82695895 0.8429528 0.94816333 0.92703617 0.85458785 0.8332768 0.83541167 0.8672678
0.8575668 0.77700263 0.762188 0.85780245 0.7929372 0.8572317 0.8605661 0.8473867
00000000: 0127 5d3f 6299 273f 5ccf 3c3f 8e2e 523f
00000010: 21af 863f c3f5 5b3f a85e 653f 09e4 623f
00000020: 28db 553f b845 573f 4e6a 4b3f f5f4 193f
00000030: 6724 683f 0ce6 603f 06e8 673f 4f4b 533f
00000040: 7fa1 603f f50f 4c3f 285d 4e3f 551c 363f
00000050: b251 5c3f 365d 503f b443 503f 4660 563f
00000060: 99a2 583f 6272 4f3f 0cdc 783f c023 6e3f
00000070: c2c4 633f 8c45 4c3f 0177 643f 23e0 563f
00000080: 08f6 623f e9e6 403f c627 813f 428b 663f
00000090: 21b2 523f ba2b 4d3f 569c 753f 3e86 5a3f
000000a0: 5992 323f 50a7 ec3e d09b 353f 6205 673f
000000b0: f6ed 4e3f 1ee2 5b3f ba62 503f d61b 3e3f
000000c0: 95b3 533f c1cb 573f d5ba 723f 3e52 6d3f
000000d0: 45c6 5a3f a151 553f 8add 553f 4305 5e3f
000000e0: 7f89 5b3f a5e9 463f c11e 433f f198 5b3f
000000f0: effd 4a3f 8973 5b3f 0f4e 5c3f 56ee 583f

bn_outlayer_in.bias f4 [64]
-0.14461055 -1.0603079 -0.09344627 -0.12035875 -0.20062982 -0.13940883 -0.17651239 -0.13853581
-0.2493159 -0.05996485 -0.20296153 -0.75063944 -0.12559631 -0.13739505 -0.19000784 -0.17894326
-0.15106276 -0.10711121 0.073694944 -0.1298949 -0.18678832 -0.10113126 -0.07141292 -0.3158944
-0.14818007 -0.10757146 -0.18518282 -0.172706 -0.18667524 -0.119714096 -0.16241258 -0.18331803
-0.10070564 -0.084197685 -0.19557081 -0.12928787 -0.15339004 -0.08735073 -0.24245128 -0.15110235
0.011149774 -0.74073637 -0.17291065 -0.17418517 -0.043812193 -0.08721964 -0.066793524 -0.076356106
-0.13826716 -0.32665673 -0.13956276 -0.1663581 -0.22571106 -0.07713831 -0.12106473 -0.10133796
-0.09806477 -0.12104151 -0.08626668 -0.05782267 -0.19783762 -0.17875636 -0.12574467 -0.13682225
00000000: ca14 14be 2bb8 87bf c260 bfbd a67e f6bd
00000010: e771 4dbe 30c1 0ebe aabf 34be 55dc 0dbe
00000020: ab4c 7fbe b49d 75bd 26d5 4fbe e829 40bf
00000030: 529c 00be 4ab1 0cbe 6a91 42be e73c 37be
00000040: 32b0 1abe 1f5d dbbd 60ed 963d 2b03 05be
00000050: 7045 3fbe e81d cfbd f040 92bd e9bc a1be
00000060: 84bc 17be 6d4e dcbd 91a0 3dbe d7d9 30be
00000070: cb27 3fbe aa2c f5bd 7c4f 26be b9b7 3bbe
00000080: c23e cebd d66f acbd b743 48be 0a64 04be
00000090: 4712 1dbe f1e4 b2bd 2645 78be 93ba 1abe
000000a0: 8bad 363c e6a0 3dbf 7d0f 31be 995d 32be
000000b0: 6a74 33bd 36a0 b2bd 0bcb 88bd 9760 9cbd
000000c0: e895 0dbe 8d3f a7be 8ae9 0ebe c759 2abe
000000d0: cd20 67be b1fa 9dbd c9f0 f7bd 478a cfbd
000000e0: 2fd6 c8bd 9ce4 f7bd 96ac b0bd 77d7 6cbd
000000f0: f295 4abe e80b 37be 36c3 00be 221b 0cbe

bn_outlayer_in.running_mean f4 [64]
-0.03940874 0.00069283554 -0.0036088966 -0.0035496217 -0.05861673 -0.03845088 -0.07545544 -0.057669993
-0.014251644 0.014712364 0.0033630603 7.167401e-05 -0.02693909 -0.017604277 -0.0342232 -0.00985756
-0.05220565 -0.011016426 0.085134655 -0.01103954 -0.01323771 -0.021797635 -0.0071293754 -0.00084702874
-0.007915753 -0.013651385 -0.049626254 -0.08211912 -0.079782486 -0.011322415 -0.015423353 -0.0193445
-0.041102756 -0.0067912075 -0.10293375 -0.055054452 0.0005709491 0.035857018 -0.02711575 -0.037820373
0.0020985822 0.0054334416 -0.009558608 -0.017728338 0.015665649 -0.009657146 -0.0014151309 -0.00487044
-0.013559261 0.021939257 -0.04915815 -0.049874824 -0.032054614 -0.007400789 0.03533795 -0.04471103
-0.034635156 -0.0057246336 -0.0050621564 0.006165084 -0.012999144 -0.027212068 -0.019965518 0.047369555
00000000: 0f6b 21bd 689f 353a 3d83 6cbb c5a0 68bb
00000010: 1918 70bd ac7e 1dbd 6288 9abd 5f37 6cbd
00000020: ba7f 69bc 210c 713c ca66 5c3b b14f 9638
00000030: 5eaf dcbc d836 90bc a02d 0cbd 9a81 21bc
00000040: 97d5 55bd 3d7e 34bc 145b ae3d 30df 34bc
00000050: fbe2 58bc f490 b2bc 899d e9bb 230b 5eba
00000060: 13b1 01bc 0faa 5fbc e644 4bbd 122e a8bd
00000070: 0065 a3bd a781 39bc 3bb2 7cbc 5b78 9ebc
00000080: 5d5b 28bd c788 debb eece d2bd c780 61bd
00000090: bfab 153a cfde 123d d921 debc 89e9 1abd
000000a0: 5e88 093b 030b b23b b59b 1cbc 053b 91bc
000000b0: 3f55 803c 0239 1ebc ea7b b9ba 3698 9fbb
000000c0: aa27 5ebc f5b9 b33c 0e5a 49bd 8b49 4cbd
000000d0: b34b 03bd 5182 f2bb 87be 103d ea22 37bd
000000e0: 98dd 0dbd b595 bbbb 72e0 a5bb 7904 ca3b
000000f0: 5dfa 54bc d8eb debc ba8e a3bc 9406 423d

bn_outlayer_in.running_var f4 [64]
0.0046004658 0.0001223912 0.0041543306 0.002732757 0.11198855 0.0029445747 0.017170927 0.011824129
0.0022463752 0.019398136 0.00871345 4.1168113e-07 0.0017321006 0.0006397064 0.003495262 0.012294698
0.00556936 0.009747487 0.023322541 0.0048802486 0.014604693 0.0020878934 0.014995934 2.9243707e-05
0.011206096 0.016422609 0.007800714 0.025262887 0.022734214 0.01257365 0.0005497297 0.028206134
0.0048171165 0.004190883 0.057448637 0.011228404 0.014082476 0.013058573 0.003648073 0.004130045
0.009969379 0.00012574074 0.0037425284 0.00084525585 0.011718389 0.010657866 0.0006115618 0.0039599203
0.00962487 0.0008535288 0.007963592 0.00896457 0.0021645322 0.00914192 0.013320447 0.0051641357
0.0035660237 0.008557892 0.0042092907 0.017658385 0.0046498496 0.04153547 0.0007030008 0.009144285
00000000: 81bf 963b 2356 0039 0d21 883b 0e18 333b
00000010: 415a e53d c4f9 403b 0baa 8c3c feb9 413c
00000020: ec37 133b d7e8 9e3c dcc2 0e3c 0605 dd34
00000030: a707 e33a f8b1 273a c410 653b b36f 493c
00000040: 2e7f b63b ecb3 1f3c ea0e bf3c 7eea 9f3b
00000050: 8648 6f3c 0ad5 083b 82b1 753c 6250 f537
00000060: c699 373c b588 863c 229d ff3b 1df4 ce3c
00000070: 1a3d ba3c b601 4e3c bc1b 103a 8d10 e73c
00000080: e7d8 9d3b ad53 893b 434f 6b3d 57f7 373c
00000090: 2fba 663c a0f3 553c 8214 6f3b 5455 873b
000000a0: 9b56 233c 46d9 0339 3545 753b 2994 5d3a
000000b0: 7cfe 3f3c 549e 2e3c 3851 203a 38c2 813b
000000c0: a1b1 1d3c 59bf 5f3a ba79 023c 22e0 123c
000000d0: d3da 0d3b fec7 153c 013e 5a3c e937 a93b
000000e0: f3b3 693b 6736 0c3c 17ee 893b 51a8 903c
000000f0: c45d 983b 1921 2a3d 9649 383a e9d1 153c

gnn_layers.0.gnn.att_i f4 [1, 1, 64]
-0.88045305 0.8303859 -0.57389075 -0.5701448 0.676075 0.80012447 -0.85930365 0.98952806
0.80423576 1.0488825 1.4317935 -0.96685815 0.7611051 1.3576133 -0.26928353 1.6063426
1.2927293 -0.40009186 1.3879567 -1.9489028 1.0588772 -1.6023871 -0.0061944677 -0.22499618
1.3813999 -1.3447232 -0.72690034 -0.7637718 -0.43706578 -0.33219603 0.029697025 0.08342306
-0.5800981 -1.7122605 0.76081234 -0.71478873 1.3120785 -0.25493252 -1.4566206 -0.8699075
-0.6627732 0.27221033 0.40511647 0.5892104 1.4878131 -0.23885094 1.4447056 -0.5554542
1.1358331 0.35328013 -0.28902477 -0.39650354 -1.1752069 1.2070329 0.0764384 -0.5376543
-1.4592403 0.09931776 -0.8470918 1.5566117 -0.114959635 0.5672444 1.0151768 1.7409577
00000000: 5f65 61bf 2c94 543f 81ea 12bf 02f5 11bf
00000010: 4013 2d3f f5d4 4c3f 53fb 5bbf b651 7d3f
00000020: 65e2 4d3f c841 863f 0245 b73f 0484 77bf
00000030: c9d7 423f 46c6 ad3f 88df 89be a29c cd3f
00000040: 2778 a53f d7d8 ccbe 91a8 b13f a675 f9bf
00000050: 4a89 873f 051b cdbf f6fa cabb 6665 66be
00000060: b6d1 b03f e41f acbf 2416 3abf 8c86 43bf
00000070: 16c7 dfbe 9915 aabe 2d47 f33c b6d9 aa3d
00000080: 4f81 14bf 5a2b dbbf 99c4 423f 65fc 36bf
00000090: 30f2 a73f 8486 82be 8b72 babf 42b2 5ebf
000000a0: 81ab 29bf 275f 8b3e 6d6b cf3e 7ed6 163f
000000b0: a970 be3f 5795 74be 1dec b83f 3f32 0ebf
000000c0: fb62 913f 22e1 b43e 0efb 93be 8302 cbbe
000000d0: 2e6d 96bf 0e80 9a3f bc8b 9c3d b6a3 09bf
000000e0: 63c8 babf 1c67 cb3d 02db 58bf 0d3f c73f
000000f0: f56f ebbd ee36 113f 50f1 813f b4d7 de3f

gnn_layers.0.gnn.att_j f4 [1, 1, 64]
-0.4021053 -0.01051848 -0.1802487 -0.3383031 0.26816523 0.01190928 0.01675216 -0.09463007
0.024368636 -0.20252486 -0.023394179 -0.18055089 0.06348075 0.4490181 0.23542593 -0.032426983
-0.045779884 -0.016458606 -0.17219275 0.043757804 0.40311205 -0.24268079 -0.12813589 -0.18624261
0.09286612 -0.2565204 0.13672212 0.021307642 -0.099097006 -0.16329418 -0.17491056 0.32375124
0.08716129 -0.018172111 -0.06956136 -0.20913747 0.0020097585 0.0633797 -0.0849797 -0.059036683
-0.16646528 0.08924971 -0.0760299 0.2069377 0.48566222 0.1618485 0.12674195 0.049311433
0.2590302 0.2040738 0.15527411 -0.18407063 -0.046993732 0.4627731 -0.07528426 -0.2952017
-0.16012116 -0.14390871 -0.25136057 0.052065007 -0.24712452 -0.10314457 0.18894811 0.09367317
00000000: bfe0 cdbe b455 2cbc 1d93 38be 1036 adbe
00000010: f44c 893e 241f 433c d33b 893c 69cd c1bd
00000020: bca0 c73c ad62 4fbe 26a5 bfbc 55e2 38be
00000030: 3202 823d b3e5 e53e 7f13 713e 28d2 04bd
00000040: b083 3bbd 33d4 86bc 4c53 30be 623b 333d
00000050: b464 ce3e 5081 78be 0e36 03be 62b6 3ebe
00000060: 9830 be3d a456 83be e200 0c3e 5d8d ae3c
00000070: 5ff3 cabd 9736 27be c11b 33be b9c2 a53e
00000080: 9e81 b23d aedd 94bc 3076 8ebd 2228 56be
00000090: 27b6 033b 37cd 813d d609 aebd 73d0 71bd
000000a0: e075 2abe 8dc8 b63d 90b5 9bbd 7ae7 533e
000000b0: b8a8 f83e 9dbb 253e a4c8 013e c9fa 493d
000000c0: 9b9f 843e b9f8 503e 2d00 1f3e 037d 3cbe
000000d0: 807c 40bd 99f0 ec3e a22e 9abd ad24 97be
000000e0: cdf6 23be ce5c 13be 55b2 80be 1e42 553d
000000f0: 360e 7dbe 763d d3bd 9d7b 413e b8d7 bf3d

gnn_layers.0.gnn.att_em_i f4 [1, 1, 64]
0.86974335 1.2580332 0.9693228 -0.29080662 0.80629605 0.368667 0.8761167 0.41287607
1.496726 -1.1424323 -0.47222152 -0.90827006 0.49658024 -0.012539135 0.48707977 0.13699262
0.70437723 -0.33304793 -1.0533919 -0.14871487 0.42352998 0.13566631 0.14762521 -0.6883969
0.07404605 0.49525914 0.9313532 0.649914 0.7893184 0.9784567 0.051606923 -0.012132848
0.8915471 -0.3001359 0.81422013 0.71902 -0.14742766 -1.230018 0.9074074 0.8153777
-0.27113146 -1.1486534 0.10716229 1.4079005 -0.40865162 -0.2916111 -0.554951 -0.9632651
0.09748154 -0.21546744 0.9322387 0.5060043 0.83204216 0.7205104 -0.71797395 0.8064868
0.8576766 -0.014531119 0.15804766 1.2111204 0.39446506 -0.5088159 -0.73686963 -0.53108954
00000000: 80a7 5e3f 3b07 a13f 8a25 783f 9be4 94be
00000010: 6b69 4e3f ecc1 bc3e 2f49 603f 7e64 d33e
00000020: b894 bf3f 393b 92bf 05c7 f1be 6384 68bf
00000030: c43f fe3e f270 4dbc 8562 f93e cb47 0c3e
00000040: 1152 343f 4285 aabe 8cd5 86bf b648 18be
00000050: ecd8 d83e 1cec 0a3e 102b 173e c73a 30bf
00000060: 75a5 973d 9b92 fd3e 2a6d 6e3f c460 263f
00000070: c510 4a3f 237c 7a3f c861 533d dac8 46bc
00000080: 6e3c 643f 6aab 99be bb70 503f b211 383f
00000090: 47f7 16be 3b71 9dbf da4b 683f 98bc 503f
000000a0: bed1 8abe 1307 93bf e777 db3d 1536 b43f
000000b0: c93a d1be 0d4e 95be 4511 0ebf 8b98 76bf
000000c0: 67a4 c73d 7fa3 5cbe 32a7 6e3f 7f89 013f
000000d0: b700 553f 5f73 383f 24cd 37bf eb75 4e3f
000000e0: b290 5b3f ee13 6ebc 3fd7 213e fe05 9b3f
000000f0: 53f7 c93e c241 02bf 7da3 3cbf 7cf5 07bf

gnn_layers.0.gnn.att_em_j f4 [1, 1, 64]
0.03165363 0.02798029 -0.0065177693 0.06599466 1.8263816 0.16816461 0.39539802 0.93168205
0.120332375 -0.4170785 0.14549631 -1.2691159 -0.4403109 0.0036806827 1.3178824 0.102079645
0.53081864 0.8373033 -0.7795245 -0.31135672 0.48162878 -0.36523348 0.90282834 -0.9344791
0.6621506 0.35168272 0.6380404 1.2866737 1.3303506 0.5109843 -0.038861122 0.99381155
0.11842213 -0.09571296 2.1693044 1.3789144 -0.13819154 -0.3822962 0.6617038 0.2084422
0.40826744 -0.66455275 -0.015301495 -0.1928955 -0.02784087 0.3041919 -0.0023039007 0.052920002
-0.032598816 -0.064365506 0.7419607 1.1117611 0.045865554 -0.091518894 -0.08845113 0.31726283
0.09581346 0.014884958 0.019106762 -0.33847997 -0.21976002 1.2541215 -0.008235432 -0.5105063
00000000: 3da7 013d ec36 e53c 0393 d5bb 3528 873d
00000010: dfc6 e93f 5833 2c3e 9c71 ca3e b782 6e3f
00000020: d270 f63d 508b d5be fcfc 143e 6472 a2bf
00000030: 6e70 e1be 9c37 713b 5fb0 a83f 220f d13d
00000040: bbe3 073f 8259 563f eb8e 47bf 266a 9fbe
00000050: 0c98 f63e e2ff babe c21f 673f 063a 6fbf
00000060: b482 293f c20f b43e 9e56 233f b9b1 a43f
00000070: ee48 aa3f decf 023f d72c 1fbd 6f6a 7e3f
00000080: 4d87 f23d 2805 c4bd e2d5 0a40 4480 b03f
00000090: 1582 0dbe 54bc c3be 6c65 293f df71 553e
000000a0: 6e08 d13e 2120 2abf 1fb3 7abc 6686 45be
000000b0: 8912 e4bc 0abf 9b3e 0afd 16bb a5c2 583d
000000c0: 5686 05bd 10d2 83bd 23f1 3d3f 304e 8e3f
000000d0: 85dd 3b3d 426e bbbd de25 b5bd 4670 a23e
000000e0: d939 c43d 0ae0 733c c985 9c3c 3f4d adbe
000000f0: c508 61be 0e87 a03f e8ed 06bc 8ab0 02bf

gnn_layers.0.gnn.bias f4 [64]
0.006656994 0.0026799527 0.002993306 -0.0040305774 0.000786109 -0.008509905 0.008376285 0.012512169
0.0038098686 -0.0071527637 0.013989863 0.054078102 0.0055825114 -0.0019802891 -0.020281669 0.017788768
-0.0098264385 -3.2310134e-05 0.005137309 -0.020406185 0.0051092766 -0.005716458 0.0048126024 0.01088008
0.005603418 0.006264278 0.012005929 0.0030332077 0.009926612 -0.00010039259 -0.0024628425 0.006753629
-0.0025708785 0.02491635 -0.012173992 0.0060675745 -0.01906132 0.014730607 -0.021067914 0.0067273257
-0.001496778 -0.0029037897 -0.0042849113 -0.003670712 -0.011984408 0.0041948743 0.009802963 -0.022312673
0.011963025 0.009218945 -0.019647386 0.029944297 0.003029034 0.026365003 0.0026128693 0.0073041604
0.016279336 0.0010546828 0.0026928838 0.024231065 -0.001635819 0.005578734 -0.0071275937 -0.0069775283
00000000: ea22 da3b 25a2 2f3b 572b 443b ef12 84bb
00000010: e212 4e3a 216d 0bbc b03c 093c d7ff 4c3c
00000020: fdae 793b bb61 eabb bd35 653c 0081 5d3d
00000030: 80ed b63b bdc7 01bb be25 a6bc c0b9 913c
00000040: 12ff 20bc be84 07b8 df56 a83b df2a a7bc
00000050: b86b a73b 2051 bbbb 09b3 9d3b 5d42 323c
00000060: e19c b73b 9344 cd3b 84b4 443c c8c8 463b
00000070: 3aa3 223c dd89 d2b8 a467 21bb 8c4d dd3b
00000080: 2f7c 28bb 601d cc3c 6c75 47bc 81d2 c63b
00000090: 7c26 9cbc a558 713c 9e96 acbc e670 dc3b
000000a0: 892f c4ba 824d 3ebb 7168 8cbb 5490 70bb
000000b0: 405a 44bc 2875 893b 9b9c 203c 11c9 b6bc
000000c0: 9000 443c 0f0b 173c 8ef3 a0bc be4d f53c
000000d0: c282 463b 6bfb d73c ac3c 2b3b bd57 ef3b
000000e0: 3e5c 853c 483d 8a3a 187b 303b 3a80 c63c
000000f0: fa68 d6ba d0cd b63b 978e e9bb c0a3 e4bb

gnn_layers.0.gnn.lin.weight f4 [64, 5]
-0.0056831576 -0.008490506 0.0053765383 0.033549547 -0.32263118 -0.0050133406 0.021249805 -0.032302395
-0.018539697 1.0073066 0.021375535 0.19635084 0.057754483 -0.061326806 -0.6311495 -0.026125852
0.26071176 -0.11334954 -0.23503749 -0.53449035 -0.19405852 0.12196667 0.31422204 0.0797543
0.55008125 0.0044808676 0.08276433 0.05316938 -0.1895504 0.65569687 -0.0075633815 -0.007455435
-0.032735664 0.10970555 -0.26440412 0.09418154 -0.50022745 -0.22649908 -0.63078076 0.17233779
-0.7246532 -0.39839578 -0.23873256 -0.23668788 0.33285883 -0.20683655 0.22963274 -0.01690541
-0.08772667 0.5439921 -0.043750226 -0.1402277 0.0600143 -0.12629043 0.4133201 -0.020438407
0.1883005 -0.07780468 0.034097765 -0.8927522 -0.2826486 0.14217377 0.26163843 -0.07894768
0.44979304 -0.08123921 0.10492719 -0.078800626 0.120474905 0.5761208 -0.08515263 0.13184355
-0.016177163 0.3128131 0.030449094 -0.15729181 -0.05791266 0.36067593 -0.008065689 0.671948
-0.13100992 0.089027725 -0.03710778 -0.24626525 0.8345062 -0.07941508 0.044858724 0.019489054
0.1277123 -0.41263506 0.22058803 -0.05167861 -0.14171223 -0.1197682 0.3071067 0.06402768
0.034239836 -0.026054837 0.23422767 -0.4236398 -0.18478686 -0.1549641 0.19994043 -0.12061831
0.61170477 0.14514402 0.24408117 -0.2120457 0.26883554 -0.8916568 -0.25735328 0.026148373
-0.07958391 0.03863434 -0.19482788 -0.0044855536 -0.18914264 -0.08076249 -0.23393044 -0.07436994
0.06422661 -0.021866892 -0.2649729 -0.16734153 0.6554059 0.19064532 0.24938737 -0.043265026
0.24794585 -0.44616747 0.097877055 -0.11497039 -0.056901094 0.029764498 -0.5215158 0.109258294
-0.1795737 0.019089052 -0.05032327 -0.4229357 0.15438175 -0.12401728 -0.14450617 -0.1296751
-0.5802682 -0.21877056 0.007867545 -0.059742887 0.04620314 -0.46824247 -0.021511497 0.023790857
0.42087632 0.051938713 -0.118414834 -0.0069300896 -0.12192838 0.09513166 0.28586566 0.2574269
-0.19093338 0.22693427 -0.03199496 -0.019917691 -0.48321065 0.14874454 -0.009340562 -0.06466691
0.19157167 -0.36342454 -0.44992995 -0.35136244 -0.3042994 -0.4529959 -0.009146071 0.19936673
-0.24183014 -0.0043497724 -0.09138326 -0.68706185 -0.022726428 -0.070686236 0.15341964 -0.036876056
0.43828222 -0.097807534 0.15302604 0.30605435 -0.01459086 0.16125557 -0.13000678 0.11413386
-0.06403118 0.20813057 -0.83478534 -0.09254932 0.09000283 -0.092679396 0.19884574 -0.45113152
-0.13244465 0.27397856 -0.18522938 0.012418116 -0.8281168 0.13319086 -0.1519344 0.1535623
-0.37633494 -0.25981346 -0.13992271 -0.04569972 0.10302548 -0.20703156 -0.1303134 0.1380741
-0.05244433 -0.13148148 0.11830699 0.72886086 0.0061540306 -0.23870602 0.017004149 -0.17122728
0.631107 0.32567823 -0.040211998 0.11150503 0.17120726 0.087495536 -0.049044903 0.11527581
-0.25090015 -0.14975084 1.1238761 0.0075874203 -0.004951208 0.0011640047 0.2288817 -0.33782795
0.20339642 0.14692107 -0.4012524 -0.09087484 0.50972533 -0.28626046 -0.15884873 -0.12217021
-0.122925244 -0.085465506 -0.0041957274 0.015290989 0.011275661 -0.02142203 -0.36059117 -0.16381423
00000000: c839 babb c31b 0bbc ac2d b03b 406b 093d
00000010: ea2f a5be f346 a4bb 1214 ae3c 844f 04bd
00000020: 90e0 97bc 6cef 803f bf1b af3c 3210 493e
00000030: f78f 6c3d d131 7bbd 0393 21bf e205 d6bc
00000040: 037c 853e ce23 e8bd abad 70be 5cd4 08bf
00000050: 47b7 46be a9c9 f93d b6e1 a03e 3956 a33d
00000060: 20d2 0c3f 3ed4 923b 5880 a93d 23c8 593d
00000070: 8019 42be c0db 273f 3ed6 f7bb b94c f4bb
00000080: d515 06bd 4ead e03d fa5f 87be 40e2 c03d
00000090: e80e 00bf 60ef 67be d97a 21bf 5179 303e
000000a0: df82 39bf 88fa cbbe 4f76 74be 4f5e 72be
000000b0: 796c aa3e f6cc 53be d824 6b3e 377d 8abc
000000c0: 0aaa b3bd 1143 0b3f 7033 33bd da97 0fbe
000000d0: 8ed1 753d 4752 01be b19e d33e 726e a7bc
000000e0: d9d1 403e 0f58 9fbd 19aa 0b3d 688b 64bf
000000f0: 51b7 90be 0096 113e 79f5 853e 52af a1bd
00000100: 464b e63e be60 a6bd 11e4 d63d 3962 a1bd
00000110: 8cbb f63d a77c 133f 8164 aebd ff01 073e
00000120: f885 84bc 0a29 a03e 6170 f93c 1b11 21be
00000130: d335 6dbd 84aa b83e f425 04bc c904 2c3f
00000140: 7727 06be 2b54 b63d 54fe 17bd f52c 7cbe
00000150: 33a2 553f 60a4 a2bd c8bd 373d 82a7 9f3c
00000160: 03c7 023e e744 d3be d4e1 613e f3ac 53bd
00000170: 031d 11be 0849 f5bd 173d 9d3e f220 833d
00000180: 123f 0c3d f470 d5bc 61d9 6f3e 51e7 d8be
00000190: c438 3dbe e9ae 1ebe 2fbd 4c3e bc06 f7bd
000001a0: af98 1c3f a2a0 143e 6af0 793e 8222 59be
000001b0: d0a4 893e 9f43 64bf cfc3 83be 1d35 d63c
000001c0: e4fc a2bd 0b3f 1e3d f680 47be 8dfb 92bb
000001d0: 9cae 41be ce66 a5bd 768b 6fbe 444f 98bd
000001e0: 3e89 833d 3222 b3bc 87aa 87be 945b 2bbe
000001f0: aec8 273f 8738 433e 675f 7f3e ab36 31bd
00000200: 84e5 7d3e 1070 e4be c473 c83d 9975 ebbd
00000210: 1f11 69bd add4 f33c 0f82 05bf d0c2 df3d
00000220: 2be2 37be a560 9c3c c61f 4ebd 078b d8be
00000230: 4016 1e3e c6fc fdbd 6df9 13be 8dc9 04be
00000240: 758c 14bf 6405 60be e0e6 003c f5b4 74bd
00000250: 813f 3d3d 7abd efbe e138 b0bc 0be5 c23c
00000260: 1a7d d73e b0bd 543d 7a83 f2bd ce15 e3bb
00000270: 96b5 f9bd 63d4 c23d fc5c 923e 75cd 833e
00000280: 0a84 43be 7561 683e 260d 03bd 6d2a a3bc
00000290: 6367 f7be 7d50 183e 2809 19bc 1670 84bd
000002a0: 5d2b 443e c812 babe 385d e6be c7e5 b3be
000002b0: 22cd 9bbe 14ef e7be 67d9 15bc cb26 4c3e
000002c0: 52a2 77be 8988 8ebb 2627 bbbd 49e3 2fbf
000002d0: c62c babc f2c3 90bd 0a1a 1d3e 590b 17bd
000002e0: 8766 e03e 514f c8bd dcb2 1c3e 28b3 9c3e
000002f0: 810e 6fbc 2e20 253e 7f20 05be 03bf e93d
00000300: c822 83bd 2e20 553e 7eb4 55bf 7f8a bdbd
00000310: 6753 b83d b2ce bdbd 389e 4b3e b6fa e6be
00000320: 929f 07be eb46 8c3e c5ac 3dbe 5b75 4b3c
00000330: 76ff 53bf 2f63 083e b194 1bbe 703f 1d3e
00000340: f9ae c0be 4506 85be e647 0fbe a12f 3bbd
00000350: 06ff d23d 1500 54be e070 05be 4c63 0d3e
00000360: decf 56bd 15a3 06be ef4a f23d a096 3a3f
00000370: c0a7 c93b 5a6f 74be 494c 8b3c 3456 2fbe
00000380: 3a90 213f 4cbf a63e 56b5 24bd c05c e43d
00000390: f550 2f3e dc30 b33d 4fe3 48bd b915 ec3d
000003a0: fc75 80be 4958 19be 2cdb 8f3f e59f f83b
000003b0: be3d a2bb 8491 983a f75f 6a3e c9f7 acbe
000003c0: 2747 503e 7a72 163e f470 cdbe 971c babd
000003d0: 5c7d 023f bb90 92be 3ea9 22be 6034 fabd
000003e0: 3bc0 fbbd 8a08 afbd 507c 89bb 0e87 7a3c
000003f0: 8dbd 383c 417d afbc 689f b8be ebbe 27be

gnn_layers.0.bn.weight f4 [64]
0.678886 0.4018252 0.2494598 0.2543492 0.5955659 0.7874233 0.8575196 0.54424334
0.40485072 0.5683165 0.48860458 0.23058479 0.6726357 0.5342383 0.4496699 0.7086638
0.65728146 0.2405897 0.4994978 0.25124192 0.6119577 -0.15197818 0.27284995 0.23690084
0.61990875 0.78230274 0.5625303 0.57519037 0.8004367 0.3460329 0.60431206 0.71844697
0.4172291 0.2715652 0.47045723 0.38574398 0.65720886 0.45648456 0.34008664 0.579538
0.30941534 0.26331708 0.20291822 0.5060529 0.6502496 0.41600212 0.54747504 0.22958869
0.7967982 -0.108749144 0.3721319 0.40856907 -0.23620933 0.48774183 0.5069787 0.49170715
0.40202487 0.27004153 0.25091168 0.886812 0.24117705 0.6918826 0.4942462 0.35824883
00000000: 79cb 2d3f 08bc cd3e 6472 7f3e 0f3a 823e
00000010: 0277 183f 9394 493f 6886 5b3f 8853 0b3f
00000020: 9848 cf3e 317d 113f 612a fa3e 6b1e 6c3e
00000030: da31 2c3f d7c3 083f 223b e63e fe6a 353f
00000040: 9943 283f 255d 763e 2dbe ff3e c8a2 803e
00000050: 43a9 1c3f 2ba0 1bbe fdb2 8b3e 2296 723e
00000060: 57b2 1e3f fe44 483f fc01 103f ad3f 133f
00000070: 6be9 4c3f 392b b13e 32b4 1a3f 24ec 373f
00000080: 0d9f d53e 980a 8b3e c5df f03e 3c80 c53e
00000090: d73e 283f 58b8 e93e d61f ae3e 9a5c 143f
000000a0: b06b 9e3e 7fd1 863e cbc9 4f3e af8c 013f
000000b0: c276 263f 3bfe d43e 5327 0c3f 4c19 6b3e
000000c0: f8fa 4b3f dfb7 debd 1388 be3e f72f d13e
000000d0: dce0 71be 4cb9 f93e 5bc9 013f 0ac1 fb3e
000000e0: 34d6 cd3e e242 8a3e 7f77 803e 1c06 633f
000000f0: 1ef7 763e 381f 313f d70d fd3e 646c b73e

gnn_layers.0.bn.bias f4 [64]
0.057647794 -0.3215073 0.20064417 0.21956322 0.28396842 -0.020590926 0.10227929 0.21524888
-0.24204196 0.2974541 0.26104838 -0.38864738 -0.2155519 -0.17692924 -0.12545606 0.15448858
0.01816146 0.20162097 0.36651582 0.19141127 0.16594426 0.25564966 0.2168533 -0.37439737
0.19491875 0.11679665 0.244562 0.24735154 0.1320105 0.19541712 -0.22657852 0.23056574
0.18310316 0.17832176 0.23467742 0.27750564 0.30495748 0.30024785 0.29435697 0.056974035
0.20150882 -0.18211162 0.19511473 -0.1763386 0.24330884 0.16925825 -0.2568399 0.1880696
0.046430815 0.3005319 0.29592484 0.27815312 0.21631053 0.1958068 0.3606821 0.21880701
0.163512 0.32347232 0.21560816 0.04172861 0.2111157 0.22545885 -0.1719892 0.3693917
00000000: 1820 6c3d 9b9c a4be aa75 4d3e 2ed5 603e
00000010: 4f64 913e 4dae a8bc ce77 d13d 346a 5c3e
00000020: d9d9 77be e74b 983e 22a8 853e cafc c6be
00000030: a3b9 5cbe f02c 35be 8e77 00be 4132 1e3e
00000040: 58c7 943c ba75 4e3e f6a7 bb3e 5101 443e
00000050: 4bed 293e 83e4 823e cb0e 5e3e 03b1 bfbe
00000060: c898 473e 1533 ef3d 766e 7a3e b949 7d3e
00000070: c32d 073e 6d1b 483e 3304 68be 6d19 6c3e
00000080: 657f 3b3e fb99 363e 474f 703e 3815 8e3e
00000090: 6323 9c3e 16ba 993e f5b5 963e 9b5d 693d
000000a0: 5458 4e3e 787b 3abe 28cc 473e 1b92 34be
000000b0: f425 793e 0952 2d3e 8580 83be 5195 403e
000000c0: 3d2e 3e3d 51df 993e 7683 973e 166a 8e3e
000000d0: 8280 5d3e 9481 483e 53ab b83e f20e 603e
000000e0: b16f 273e 2a9e a53e 63c8 5c3e 9eeb 2a3d
000000f0: b72e 583e afde 663e f01d 30be e920 bd3e

gnn_layers.0.bn.running_mean f4 [64]
-0.18920176 0.64030313 -0.2712679 -0.4283802 0.5712758 0.3869266 -0.1252364 -0.69823307
-0.8181667 0.29445043 0.11294057 -0.45009384 0.32447207 0.41785362 0.22789295 0.5463552
0.32436666 -0.19610217 0.14398424 -0.09791239 0.23568892 -0.29811385 -0.29914913 -0.37035426
0.1782076 0.13421157 -0.35993657 -0.34094834 -0.5257409 -0.4523489 0.22864467 0.33911744
-0.3280029 -0.042299375 -1.0322845 -0.53341436 0.28253466 0.34763366 -0.48302284 -0.22142363
-0.5639308 -0.33075956 -0.27737615 0.52008384 0.14477384 0.43141046 0.5239673 -0.09026787
0.25150543 -0.4949729 -0.25091264 -0.17049478 -0.447993 0.32471898 0.23715402 -0.2815623
-0.22647454 -0.3899783 -0.5302309 0.58879644 -0.3807801 0.06410065 0.57630783 0.22936834
00000000: 1bbe 41be e8ea 233f a0e3 8abe a654 dbbe
00000010: 213f 123f 3e1b c63e f93d 00be 67bf 32bf
00000020: 5f73 51bf 35c2 963e 634d e73d b372 e6be
00000030: 3421 a63e e9f0 d53e c55c 693e efdd 0b3f
00000040: 6313 a63e 02cf 48be 9b70 133e 4b86 c8bd
00000050: 7058 713e 61a2 98be 132a 99be 139f bdbe
00000060: 0e7c 363e c26e 093e 9b49 b8be c890 aebe
00000070: f596 06bf 469a e7be d421 6a3e cda0 ad3e
00000080: ffef a7be 1c42 2dbd e621 84bf d88d 08bf
00000090: 62a8 903e 0afd b13e c54e f7be e0bc 62be
000000a0: c55d 10bf 5159 a9be 3f04 8ebe 3724 053f
000000b0: 983f 143e d5e1 dc3e b922 063f 5cde b8bd
000000c0: 52c5 803e 176d fdbe 9f77 80be 2f96 2ebe
000000d0: 575f e5be 9141 a63e 81d8 723e ef28 90be
000000e0: f1e8 67be 3cab c7be 36bd 07bf 5dbb 163f
000000f0: 9cf5 c2be 3447 833d e988 133f 89df 6a3e

gnn_layers.0.bn.running_var f4 [64]
0.0102116 0.10832806 0.020187188 0.048063114 0.08672173 0.04160155 0.004751099 0.134966
0.18159255 0.024273574 0.0026912626 0.0678282 0.02720198 0.04694142 0.016454227 0.07449816
0.029836865 0.010241172 0.005181966 0.0016565586 0.014371535 0.023079552 0.024655042 0.03868911
0.0080498075 0.0046706246 0.036825206 0.031506043 0.07643872 0.054424882 0.014338832 0.029473146
0.02822996 0.0012767839 0.2778255 0.077526286 0.02423037 0.029559214 0.05687546 0.013866022
0.084268756 0.028681718 0.019878754 0.073014244 0.0067089773 0.048721164 0.07050245 0.0012608353
0.015362803 0.06785938 0.014250475 0.010729686 0.054428242 0.023704639 0.0147017995 0.022243395
0.015718548 0.040845547 0.07561097 0.08491098 0.038304083 0.0009358813 0.090754166 0.014881881
00000000: 8e4e 273c 1adb dd3d 9a5f a53c d4dd 443d
00000010: 2a9b b13d 6366 2a3d 1baf 9b3b 8734 0a3e
00000020: 66f3 393e 60d9 c63c e55f 303b 83e9 8a3d
00000030: b0d6 de3c a545 403d 04cb 863c 7e92 983d
00000040: 716c f43c 97ca 273c 7bcd a93b e220 d93a
00000050: 9676 6b3c 5411 bd3c 5ff9 c93c 7978 1e3d
00000060: 57e3 033c 0a0c 993b 07d6 163d 7b0c 013d
00000070: e78b 9c3d a0ec 5e3d 6ced 6a3c ab71 f13c
00000080: 8442 e73c c259 a73a 253f 8e3e 1ac6 9e3d
00000090: c57e c63c 2a26 f23c 3ef6 683d 502e 633c
000000a0: 1995 ac3d ecf5 ea3c c5d8 a23c 7e88 953d
000000b0: fbd6 db3b d88f 473d 9763 903d 9d42 a53a
000000c0: 44b4 7b3c dcf9 8a3d d37a 693c 91cb 2f3c
000000d0: 26f0 5e3d 3b30 c23c d1df 703c c837 b63c
000000e0: 2fc4 803c a94d 273d edd9 9a3d cfe5 ad3d
000000f0: bee4 1c3d ee55 753a 52dd b93d 22d3 733c

out_layer.mlp.0.weight f4 [1, 64]
0.044553846 0.35024247 -0.02808171 -0.033008035 0.07369429 -0.048291422 0.043010835 0.049673915
-0.08762301 0.033210043 0.03360523 0.07751654 -0.04723191 -0.04620367 -0.0642967 0.03378872
-0.04874586 -0.03768991 0.025391942 -0.036097087 0.043590486 -0.034722377 -0.040047765 0.16209152
0.03673462 0.034880277 0.04733048 0.05587071 0.058262102 -0.027662493 -0.049948838 0.042454742
0.03794508 -0.033106074 0.07004103 0.05152878 0.030262735 0.02760172 0.08965982 0.04369389
-0.026531378 0.049942955 -0.039145853 -0.057307534 0.028555477 0.03583436 0.028235072 -0.03172559
0.033647973 -0.045413576 0.050540287 0.055639878 -0.042476345 0.03637005 0.030573772 0.03560532
0.04404627 -0.032512795 -0.03659164 0.031711925 -0.04540062 0.044256724 -0.04143752 0.032226145
00000000: 187e 363d fb52 b33e 9d0b e6bc 6f33 07bd
00000010: 08ed 963d 3acd 45bd 212c 303d e076 4b3d
00000020: b173 b3bd 4107 083d a3a5 093d fec0 9e3d
00000030: 3f76 41bd 0f40 3dbd fdad 83bd 0a66 0a3d
00000040: bda9 47bd bc60 1abd c302 d03c 8ada 13bd
00000050: f08b 323d 0d39 0ebd 2009 24bd 52fb 253e
00000060: 0a77 163d 9fde 0e3d 9bdd 413d b0d8 643d
00000070: 3ea4 6e3d 749c e2bc 2797 4cbd 06e5 2d3d
00000080: 4d6c 1b3d 3c9a 07bd ac71 8f3d d80f 533d
00000090: 8ee9 f73c 011d e23c 919f b73d 5df8 323d
000000a0: 5558 d9bc fc90 4c3d 6757 20bd 4ebb 6abd
000000b0: 2ded e93c 0dc7 123d 3d4d e73c b1f2 01bd
000000c0: 75d2 093d 9603 3abd 5503 4f3d a4e6 633d
000000d0: adfb 2dbd c3f8 143d d975 fa3c e2d6 113d
000000e0: dd69 343d 232c 05bd 1ee1 15bd 5de4 013d
000000f0: 00f6 39bd 8a46 353d 64ba 29bd 90ff 033d
